models/spec_fcn4_20231122-1102.pth (torch, 420832 bytes, 10 tensors)

conv1.weight f4 [16, 1, 3, 3]
-0.41613242 0.21344024 -0.05096795 0.25345093 0.044384666 -0.12427703 0.21332054 -0.2128871
0.22003634 -0.28112888 0.052843552 0.2807135 -0.25428137 0.089247234 0.13336089 -0.21012306
-0.09344426 0.37067273 -0.10260236 -0.1682213 -0.22405753 -0.22345693 -0.14685903 -0.00658685
0.3188215 0.34704036 0.17905292 0.31081292 -0.02872534 -0.2793253 -0.2670719 0.33513665
-0.02404122 -0.2760567 0.07349818 0.20395596 0.18852656 0.110572815 0.09859459 -0.27744132
0.019988345 -0.1865692 0.06924739 -0.08448861 0.14019644 -0.10573537 0.0030103044 0.040137067
0.13750191 -0.2621682 -0.13919507 0.18124714 0.24548745 0.22712024 -0.065818176 -0.2784491
-0.092940405 -0.06510855 0.15535446 -0.004445887 0.23131604 0.1530543 0.14779685 0.20888416
0.2427297 -0.0010847916 0.058422204 -0.29305026 -0.25344986 0.32329103 0.095794834 0.049174547
-0.22399843 -0.080230996 0.3889182 -0.19622009 -0.12605701 0.23339449 0.02013029 -0.027511079
0.10023047 -0.060465127 0.12319717 0.22945955 0.28641367 0.16537495 -0.26427525 -0.017539812
0.018578745 0.20067671 0.04546889 -0.15319557 0.27423725 -0.09702737 0.32425684 -0.058857936
0.073558696 0.07751185 0.15333934 -0.20269184 -0.26228666 -0.18698743 0.36693773 0.17694344
-0.21503396 0.32394505 -0.23216482 0.14992912 0.12638065 -0.09737188 0.27882499 0.08790164
0.044392638 0.30300406 0.13873035 -0.062793896 -0.10740502 0.13861617 -0.17744681 -0.27203995
0.4088491 -0.20976405 -0.06582928 0.20411493 0.30111656 -0.31000218 0.30046332 0.26047692
-0.20711145 -0.029341416 0.027991578 -0.18845336 -0.09861877 0.025622701 -0.18092285 -0.2461257
-0.23700063 0.27248555 -0.25625727 0.04444028 -0.10499659 -0.16084284 -0.27581412 -0.058944277
00000000: 4f0f d5be 1490 5a3e c5c3 50bd 52c4 813e
00000010: b2cc 353d f584 febd b370 5a3e 13ff 59be
00000020: 3551 613e 20f0 8fbe 7b72 583d aeb9 8f3e
00000030: 2b31 82be 41c7 b63d c28f 083e 802a 57be
00000040: b45f bfbd d1c8 bd3e 3021 d2bd 3442 2cbe
00000050: 566f 65be e5d1 64be 3762 16be 81d6 d7bb
00000060: 923c a33e 46af b13e a659 373e df22 9f3e
00000070: 6751 ebbc ba03 8fbe a6bd 88be 0897 ab3e
00000080: 18f2 c4bc 4e57 8dbe 3786 963d d5d9 503e
00000090: 1b0d 413e 0074 e23d f6eb c93d ca0c 8ebe
000000a0: 99be a33c ff0b 3fbe 93d1 8d3d 5d08 adbd
000000b0: a88f 0f3e c98b d8bd 8748 453b c466 243d
000000c0: 4dcd 0c3e e93a 86be 2789 0ebe da98 393e
000000d0: 1061 7b3e 3592 683e aecb 86bd e190 8ebe
000000e0: 8a57 bebd a257 85bd 3d15 1f3e ceae 91bb
000000f0: 1dde 6c3e 44ba 1c3e 0f58 173e bbe5 553e
00000100: 228e 783e 912f 8eba 1f4c 6f3d af0a 96be
00000110: 2ec4 81be 6786 a53e 1530 c43d 406b 493d
00000120: d85f 65be 2650 a4bd 4920 c73e ebed 48be
00000130: 1715 01be f7fe 6e3e 47e8 a43c ea5e e1bc
00000140: a245 cd3d 48aa 77bd cc4e fc3d 72f7 6a3e
00000150: d0a4 923e 0d58 293e 164f 87be a7af 8fbc
00000160: 7432 983c 327e 4d3e 963d 3a3d 4ddf 1cbe
00000170: d368 8c3e 49b6 c6bd fe04 a63e 0515 71bd
00000180: f1a5 963d 88be 9e3d fd04 1d3e 738e 4fbe
00000190: 704a 86be a279 3fbe 43df bb3e a930 353e
000001a0: dd31 5cbe 20dc a53e 9dbc 6dbe 0587 193e
000001b0: ee69 013e e96a c7bd 26c2 8e3e c605 b43d
000001c0: 0ed5 353d 5923 9b3e 540f 0e3e 169a 80bd
000001d0: 2af7 dbbd 66f1 0d3e 9eb4 35be d248 8bbe
000001e0: ab54 d13e 63cc 56be 80d1 86bd 8103 513e
000001f0: f32b 9a3e 9bb8 9ebe 54d6 993e 3b5d 853e
00000200: 0615 54be 695d f0bc 984e e53c ebf9 40be
00000210: a3f8 c9bd b3e6 d13c d743 39be 6008 7cbe
00000220: 4bb0 72be 3a83 8b3e 2734 83be 0307 363d
00000230: 7408 d7bd fcb3 24be 8237 8dbe 8e6f 71bd

conv1.bias f4 [16]
0.20924501 0.12938717 0.025502283 0.030392675 -0.09238663 -0.036629263 -0.14643207 0.08473897
-0.26843986 0.11584367 0.07864589 -0.179183 -0.19903176 -0.5028297 -0.48653674 -0.2101123
00000000: 5344 563e 127e 043e 2aea d03c 0ffa f83c
00000010: 3435 bdbd 9108 16bd 4af2 15be a08b ad3d
00000020: f370 89be 723f ed3d 1911 a13d c07b 37be
00000030: fbce 4bbe 72b9 00bf 581b f9be ae27 57be

conv2.weight f4 [32, 16, 3, 3]
-0.03373588 -0.12871166 -0.14085107 0.06980836 0.009951877 -0.063135676 -0.14375062 -0.068107545
-0.14021131 0.051805086 0.01799189 -0.018444728 -0.0047824658 0.022782639 -0.11255608 0.07006266
0.03443621 -0.008462008 -0.09436917 -0.024439313 -0.040278748 0.062072482 0.08737969 0.036258884
-0.22700539 -0.26209995 -0.05341546 0.05475768 0.08070107 0.07241124 -0.03899102 -0.08417042
-0.083779894 0.002234405 -0.031502053 -0.006265669 -0.118543014 -0.07670644 -0.0876012 -0.03060957
-0.012335474 -0.07792461 0.08577691 0.156811 0.08866062 -0.022779137 -0.12680618 0.025405701
-0.060390573 0.01176121 -0.10226645 -0.06714168 -0.059168566 0.023142142 -0.013088831 -0.081180945
0.04537887 0.09482168 0.12986347 -0.04395506 -0.14600949 -0.13132927 -0.12698135 -0.036157615
-0.12864876 -0.088748254 -0.0009418374 -0.05936328 -0.12398048 -0.13791665 -0.054221395 -0.043846384
-0.030575221 -0.071920864 -0.20476778 -0.02231113 -0.059865437 -0.099056855 0.13145606 -0.03482443
-0.07518422 0.08532994 0.0040892917 -0.04188718 -0.22159684 -0.104562014 0.02575716 -0.029800814
-0.024637813 -0.025481401 0.034594227 -0.048752885 -0.057547674 -0.09198665 -0.029288847 0.047193054
0.015739212 -0.007068674 -0.055520374 -0.05433952 -0.018779192 -0.04365104 0.08993027 0.09503146
0.019666657 -0.26705632 -0.1868346 -0.09127482 -0.0129924035 0.070993595 -0.10256064 -0.14229396
-0.016097354 0.052719995 -0.038179908 -0.09023319 -0.055990614 0.0013399688 -0.056714214 -0.03984943
0.038532853 0.09075333 0.0325584 -0.13026765 -0.17877808 -0.1681169 0.038144305 0.0067606056
0.08430099 -0.05243538 0.010438989 -0.07971008 0.089723974 0.006435146 0.044839866 0.047110766
-0.021742618 0.047235567 0.003202861 -0.04401376 -0.008537753 -0.06736833 -0.00686124 0.0122634135
-0.027314331 -0.08697774 -0.15681109 -0.02189251 0.073162526 0.017447595 0.03737299 0.045638222
-0.06924835 -0.012604707 -0.09157492 -0.033314142 -0.053751137 -0.058496088 0.06527674 -0.015547722
0.015303387 -0.008005877 -0.0551519 0.01803473 0.0898722 0.042439204 -0.075937256 -0.080840215
0.07438454 -0.019077545 -0.027703846 -0.013882268 0.048041422 -0.01683394 -0.0024234832 0.06551525
-0.106131844 0.15664956 0.04124569 0.06326055 -0.073057875 0.012481447 -0.052739765 -0.03207924
-0.05601088 -0.2060352 -0.09214729 -0.12213329 -0.10908977 0.0070363223 -0.01564124 -0.07785149
0.02954187 -0.14225873 -0.11749367 0.041849013 -0.014202307 -0.13007483 0.070549056 -0.048733212
-0.11551045 0.04197054 0.0049849255 0.016935045 0.10031927 0.00247342 -0.018801933 0.017515486
-0.0672489 -0.06625771 0.099898316 -0.017760308 -0.17720988 -0.066896215 -0.09862321 -0.06629246
0.114169605 -0.13850716 0.020241551 0.104376994 0.01397536 0.027416794 -0.019085491 0.057787407
0.023518883 0.0916753 -0.024513185 -0.108690895 0.10241184 -0.041251287 -0.014002627 0.026530085
-0.054199994 -0.03779761 0.10766869 -0.059702545 -0.09544677 0.03551216 -0.08897751 -0.11036589
-0.021889243 -0.10538232 -0.17551847 0.007362 0.06611612 0.08690668 -0.034975067 0.082431555
0.05216947 0.0370128 0.07397864 -0.04354394 0.025791058 0.04653845 0.040326774 0.06442183
00000000: a22e 0abd fdcc 03be 433b 10be aff7 8e3d
00000010: 330d 233c 474d 81bd 5d33 13be f87b 8bbd
00000020: 8e93 0fbe 9231 543d ba63 933c 6619 97bc
00000030: 3bb6 9cbb a8a2 ba3c cd83 e6bd 037d 8f3d
00000040: fc0c 0d3d 3ca4 0abc a044 c1bd f434 c8bc
00000050: 54fb 24bd b73f 7e3d 1ff4 b23d 3284 143d
00000060: 1a74 68be f731 86be 2bca 5abd 9749 603d
00000070: 9a46 a53d 584c 943d 0cb5 1fbd 8b61 acbd
00000080: cb94 abbd 186f 123b 4c08 01bd 3e50 cdbb
00000090: aec6 f2bd 4418 9dbd 4268 b3bd ecc0 fabc
000000a0: ba1a 4abc f096 9fbd ceab af3d 1093 203e
000000b0: b393 b53d 509b babc 7bd9 01be 9e1f d03c
000000c0: 1b5c 77bd 17b2 403c 1371 d1bd 9481 89bd
000000d0: bd5a 72bd 9794 bd3c 8972 56bc 3242 a6bd
000000e0: 32df 393d de31 c23d eefa 043e 390a 34bd
000000f0: 8383 15be 2e7b 06be 6607 02be 021a 14bd
00000100: 80bc 03be a5c1 b5bd a3e5 76ba e926 73bd
00000110: 7ae9 fdbd 063a 0dbe 4117 5ebd 4498 33bd
00000120: e378 fabc 3f4b 93bd a5ae 51be d5c5 b6bc
00000130: 7635 75bd 52de cabd 6b9c 063e 10a4 0ebd
00000140: 2ffa 99bd 77c1 ae3d 77ff 853b e491 2bbd
00000150: 48ea 62be 9c24 d6bd ae00 d33c d620 f4bc
00000160: 3dd5 c9bc 5fbe d0bc adb2 0d3d 1bb1 47bd
00000170: 1cb7 6bbd 7f63 bcbd 2aef efbc 814d 413d
00000180: 85ef 803c 56a0 e7bb 5569 63bd 1e93 5ebd
00000190: d2d6 99bc 6fcb 32bd 5d2d b83d db9f c23d
000001a0: f81b a13c 9bbb 88be 9251 3fbe 4bee babd
000001b0: 17de 54bc 1765 913d 500b d2bd 82b5 11be
000001c0: 99de 83bc ecf0 573d 8962 1cbd 2ecc b8bd
000001d0: 6a56 65bd e4a1 af3a 2a4d 68bd 2839 23bd
000001e0: a0d4 1d3d e2dc b93d f55b 053d e264 05be
000001f0: 9a11 37be d626 2cbe 343d 1c3d 1288 dd3b
00000200: ffa5 ac3d 7bc6 56bd 4b08 2b3c 0a3f a3bd
00000210: 34c1 b73d ebdd d23b 02aa 373d 38f7 403d
00000220: 931d b2bc 157a 413d 17e7 513b c647 34bd
00000230: eee1 0bbc 68f8 89bd 41d4 e0bb 7cec 483c
00000240: 4ec2 dfbc 6321 b2bd 1693 20be ec57 b3bc
00000250: 3cd6 953d 42ee 8e3c 6c14 193d 25ef 3a3d
00000260: 14d2 8dbd f983 4ebc a28b bbbd 6974 08bd
00000270: 272a 5cbd 9899 6fbd d0af 853d dfbb 7ebc
00000280: 0fbb 7a3c 152b 03bc f5e6 61bd 92bd 933c
00000290: ea0e b83d bbd4 2d3d fe84 9bbd 8e8f a5bd
000002a0: ec56 983d 8348 9cbc 2df3 e2bc 7472 63bc
000002b0: 15c7 443d 55e7 89bc 4dd3 1ebb dc2c 863d
000002c0: a75b d9bd be68 203e 3ef1 283d bf8e 813d
000002d0: 5e9f 95bd fc7e 4c3c a705 58bd 8565 03bd
000002e0: aa6b 65bd e4fa 52be b8b7 bcbd 0521 fabd
000002f0: 756a dfbd f390 e63b 0f22 80bc 9a70 9fbd
00000300: cb01 f23c 46ac 11be 85a0 f0bd df69 2b3d
00000310: cbb0 68bc 5632 05be 067c 903d 7a9c 47bd
00000320: be90 ecbd 4de9 2b3d 9658 a33b 5dbb 8a3c
00000330: 3074 cd3d 1a19 223b 8306 9abc a37c 8f3c
00000340: cbb9 89bd 1fb2 87bd 7d97 cc3d 117e 91bc
00000350: 8276 35be e200 89bd f7fa c9bd 57c4 87bd
00000360: c1d1 e93d d2d4 0dbe 9cd1 a53c 9bc3 d53d
00000370: e9f8 643c 2f99 e03c 2d59 9cbc 7db2 6c3d
00000380: acaa c03c 42c0 bb3d e0cf c8bc 5599 debd
00000390: 4cbd d13d 1cf7 28bd 466b 65bc 9f55 d93c
000003a0: d000 5ebd abd1 1abd 6781 dc3d a88a 74bd
000003b0: 9979 c3bd 3375 113d d739 b6bd 8307 e2bd
000003c0: 1251 b3bc b0d2 d7bd 1dbb 33be ef3c f13b
000003d0: e367 873d 21fc b13d 0442 0fbd e0d1 a83d
000003e0: a7af 553d bc9a 173d 1d82 973d 215b 32bd
000003f0: c547 d33c 1a9f 3e3d b02d 253d 98ef 833d

conv2.bias f4 [32]
-0.08535236 -0.20120503 -0.05303901 -0.031132197 -0.082061596 -0.0192332 -0.020336512 -0.011082088
-0.06851606 -0.115441255 -0.06396785 0.04637437 0.04418106 -0.024168666 -0.077234834 -0.21075623
0.057999287 -0.01150446 -0.06603809 0.15562478 0.035212196 0.04915879 -0.16818929 0.041645207
0.11453468 0.03636222 0.104119234 -0.002813215 -0.054498438 -0.0094038695 -0.17782882 0.0024994598
00000000: 38cd aebd b108 4ebe 6f3f 59bd f308 ffbc
00000010: e90f a8bd f28e 9dbc c298 a6bc a591 35bc
00000020: 2652 8cbd 776c ecbd 9301 83bd 0df3 3d3d
00000030: 33f7 343d 5efd c5bc 4c2d 9ebd 7bd0 57be
00000040: a990 6d3d 347d 3cbc fa3e 87bd 1a5c 1f3e
00000050: aa3a 103d ba5a 493d d039 2cbe 2a94 2a3d
00000060: 2991 ea3d 8df0 143d 773c d53d ea5d 38bb
00000070: c139 5fbd b012 1abc c218 36be facd 233b

conv3.weight f4 [64, 32, 3, 3]
-0.0029141118 -0.011320238 -0.016649075 0.019107344 0.007013698 -0.06770534 0.06765497 -0.022169814
0.010185783 -0.022875391 -0.027944868 0.03192984 -0.05150259 -0.03541717 -0.08858727 0.017717456
0.03817857 -0.0031048506 -0.06501663 -0.052494563 -0.02655622 -0.03488711 -0.014631513 -0.040646974
-0.010512844 -0.06514549 -0.015993817 -0.027281607 -0.03320483 -0.061125804 -0.059945844 -0.020956784
0.021269005 0.00991913 -0.026884066 -0.004902467 -0.050459884 0.0480448 0.047655117 0.016356865
-0.05781733 -0.001947214 -0.054972693 -0.03692953 -0.0012347625 0.010220504 -0.017057236 0.009625894
0.014264862 -0.0264448 0.039554007 0.029766627 0.030396197 0.077224605 -0.002910024 -0.027225196
0.043839943 -0.047633212 0.03478142 -0.018845906 0.0025491884 -0.058387298 -0.048885483 -0.16675863
0.045816753 0.07095946 -0.05138544 0.05950681 -0.06623049 -0.0024964365 0.07401652 0.16408329
0.008144145 -0.043133747 0.06795616 -0.004753985 -0.02380783 -0.015314458 -0.01738396 0.017585676
0.019950466 -0.048514877 -0.047422595 0.017904012 0.027783554 -0.005683632 -0.007382066 -0.049339943
0.028747328 0.08388469 -0.048623957 -0.10671596 -0.13917045 0.006865133 0.03339261 0.032995414
0.1643691 0.054647766 0.06083749 0.00024783533 -0.08800486 -0.094521455 -0.067787886 -0.043844573
-0.03176495 -0.010457581 -0.08233937 -0.075749606 0.097582504 0.18360007 0.12829627 0.06286801
-0.028506888 0.03006025 0.030997088 0.104242235 0.048924208 -0.057306435 -0.16173422 -0.095381215
-0.07036124 0.025342682 0.02883469 -0.034609206 -0.04075727 0.006134727 0.05095656 -0.13987148
-0.0701198 0.05374144 -0.06948128 -0.04961992 -0.05293784 0.08275216 -0.041520547 -0.026091538
-0.08545734 -0.028167667 -0.072908215 -0.046541646 -0.0065899934 -0.016021496 -0.08282791 0.0027101461
-0.019372458 -0.11411491 -0.1490408 -0.07517266 -0.20509069 -0.11556603 -0.17966357 -0.020501204
-0.14782363 0.014299526 -0.012704752 -0.0069074556 -0.017625654 -0.025197769 0.040998872 0.07804413
-0.016679978 0.018707065 -0.042565465 0.009991142 -0.0053502284 -0.042221684 0.021155044 0.016595803
-0.0030897579 -0.04664761 0.038336236 -0.1441492 -0.15043837 -0.10722727 -0.20070353 -0.118505545
-0.18941303 -0.044492226 -0.037576705 -0.004317645 0.010060977 -0.016862325 -0.0118199345 0.010819243
-0.0009159082 -0.04354326 -0.078116804 0.013023904 0.02679198 -0.021213489 0.0014262822 -0.08603668
0.010302844 -0.032746583 -0.0054158727 -0.057669107 0.104949966 -0.03269802 0.02344933 -0.02501164
-0.012811564 0.06885116 0.021435058 0.026370192 0.05574808 -0.014178903 -0.025881995 -0.06360438
-0.06617216 -0.12598675 0.03071942 -0.048579514 -0.015536593 0.029502762 0.041508596 0.03115857
0.06161943 0.013723776 -0.011688842 -0.026106099 -0.015189475 0.004688309 -0.10591986 -0.08852208
0.018148385 -0.063279666 -0.062187616 -0.008356481 -0.06303914 0.012369897 0.09037735 -0.059401974
0.035503574 0.014188971 -0.0063679023 -0.047888685 -0.003857864 -0.0042737536 -0.026299817 0.045230173
-0.058343977 -0.020586029 0.0048878025 -0.009437686 -0.038716376 -0.03280501 0.037923764 -0.07077744
-0.019017806 0.012941461 -0.0059814975 -0.05511329 0.013296306 0.031661328 -0.009718852 -0.01955217
00000000: affa 3ebb 8578 39bc a463 88bc 0187 9c3c
00000010: 2ad3 e53b 19a9 8abd b08e 8a3d 789d b5bc
00000020: 45e2 263c 2c65 bbbc a3ec e4bc ddc8 023d
00000030: 61f4 52bd 9811 11bd 3e6d b5bd 3324 913c
00000040: 2261 1c3d c07a 4bbb 7027 85bd 8a04 57bd
00000050: 6e8c d9bc c9e5 0ebd 03b9 6fbc 717d 26bd
00000060: 103e 2cbc 006b 85bd 7705 83bc ad7d dfbc
00000070: ca01 08bd 0d5f 7abd c689 75bd 90ad abbc
00000080: 563c ae3c d983 223c f93b dcbc e0a4 a0bb
00000090: 06af 4ebd a0ca 443d 0332 433d d5fe 853c
000000a0: ddd1 6cbd a939 ffba 0c2b 61bd 6b43 17bd
000000b0: c1d7 a1ba e773 273c 9ebb 8bbc edb5 1d3c
000000c0: 2bb7 693c c4a2 d8bc 6203 223d 24d9 f33c
000000d0: 7201 f93c ef27 9e3d 1ab6 3ebb 6007 dfbc
000000e0: 8391 333d 0b1b 43bd f676 0e3d bb62 9abc
000000f0: 4910 273b 8527 6fbd 253c 48bd c6c2 2abe
00000100: 59aa 3b3d 3253 913d 8a79 52bd 6abd 733d
00000110: daa3 87bd 419b 23bb f995 973d 7305 283e
00000120: 056f 053c 03ad 30bd 992c 8b3d 51c7 9bbb
00000130: a308 c3bc 7ee9 7abc ce68 8ebc d60f 903c
00000140: 296f a33c 89b7 46bd 323e 42bd 6fab 923c
00000150: 569a e33c c33d babb 42e5 f1bb ae18 4abd
00000160: 847f eb3c bdcb ab3d ea29 47bd e68d dabd
00000170: b382 0ebe e9f4 e03b b0c6 083d 3326 073d
00000180: 6050 283e 56d6 5f3d bb30 793d e5ef 8139
00000190: e43b b4bd 7794 c1bd 60d4 8abd 5e96 33bd
000001a0: f71b 02bd 4656 2bbc 8ba1 a8bd 9c22 9bbd
000001b0: 56d9 c73d a801 3c3e 1960 033e f1c0 803d
000001c0: 4787 e9bc ea40 f63c 9bed fd3c f47c d53d
000001d0: c064 483d 27ba 6abd a89d 25be 3a57 c3bd
000001e0: 8e19 90bd 759b cf3c ba36 ec3c 62c2 0dbd
000001f0: 18f1 26bd d205 c93b d3b7 503d 783a 0fbe
00000200: f89a 8fbd fc1f 5c3d 344c 8ebd 423e 4bbd
00000210: 59d5 58bd f779 a93d 7311 2abd ecbd d5bc
00000220: 4204 afbd e1bf e6bc e750 95bd 74a2 3ebd
00000230: dff0 d7bb 833f 83bc aea1 a9bd b59c 313b
00000240: fdb2 9ebc 14b5 e9bd 279e 18be 20f4 99bd
00000250: 4b03 52be e2ad ecbd baf9 37be 24f2 a7bc
00000260: 145f 17be 8f48 6a3c 9827 50bc f057 e2bb
00000270: ad63 90bc 8d6b cebc 6fee 273d 9ad5 9f3d
00000280: 73a4 88bc 8f3f 993c 2059 2ebd e3b1 233c
00000290: f850 afbb a5f0 2cbd 584d ad3c ecf3 873c
000002a0: 897d 4abb 9011 3fbd 7506 1d3d d99b 13be
000002b0: 840c 1abe f999 dbbd 3a85 4dbe 09b3 f2bd
000002c0: 7df5 41be 7b3d 36bd 08ea 19bd 087b 8dbb
000002d0: ccd6 243c dc22 8abc 66a8 41bc 3243 313c
000002e0: 8f19 70ba 6b5a 32bd b4fb 9fbd 3662 553c
000002f0: db7a db3c e9c7 adbc 17f2 ba3a 0034 b0bd
00000300: 43cd 283c 4821 06bd a277 b1bb 7136 6cbd
00000310: 02f0 d63d 5cee 05bd cf18 c03c 36e5 ccbc
00000320: 98e7 51bc d601 8d3d 9398 af3c 4d06 d83c
00000330: 1958 643d a14e 68bc 7a06 d4bc 0343 82bd
00000340: 4585 87bd ac02 01be 4ba7 fb3c 50fb 46bd
00000350: 328d 7ebc c7af f13c eb04 2a3d 4240 ff3c
00000360: a864 7c3d b0d9 603c 8f82 3fbc 75dc d5bc
00000370: 47dd 78bc 63a0 993b 83ec d8bd 104b b5bd
00000380: ecab 943c c598 81bd 71b8 7ebd 9fe9 08bc
00000390: aa1a 81bd 1cab 4a3c c317 b93d 7c4f 73bd
000003a0: 326c 113d dc78 683c d6a9 d0bb ed26 44bd
000003b0: 38d4 7cbb d80a 8cbb b772 d7bc 4643 393d
000003c0: 18fa 6ebd 08a4 a8bc dc29 a03b 86a0 1abc
000003d0: 1095 1ebd 8c5e 06bd f355 1b3d c3f3 90bd
000003e0: 3bcb 9bbc 6c08 543c 7000 c4bb 79be 61bd
000003f0: c0d8 593c 4faf 013d d23b 1fbc df2b a0bc

conv3.bias f4 [64]
0.018415213 -0.030103581 -0.019448312 -0.044887006 0.041949805 -0.06106919 -0.026122974 6.704823e-05
-0.035624985 -0.07974183 -0.015889736 -0.032931898 0.0026993612 -0.040424682 -0.022140104 0.072003275
0.022210453 -0.11218307 -0.033087887 -0.045957368 -0.013967815 0.113731585 0.034907587 -0.18220007
0.10799104 0.011761256 0.12334673 -0.00061325956 -0.06862052 -0.061646502 0.0063870065 0.034791768
-0.13362813 -0.07521536 0.062828556 0.09867132 0.06413322 -0.027936231 -0.003945376 -0.106049046
-0.03372749 -0.054084245 -0.121062726 -0.10971999 -0.035272464 -0.08760786 -0.023565367 -0.03072875
-0.042715896 -0.077613465 0.025576131 0.07304995 0.0062367124 -0.017589107 -0.07068771 -0.008920971
0.017839383 -0.036811315 -0.122518696 -0.053641114 0.03024308 0.10646933 0.086181395 -0.03991665
00000000: 80db 963c c99b f6bc 1152 9fbc 70db 37bd
00000010: 8fd3 2b3d b023 7abd d9ff d5bc 3f9c 8c38
00000020: 81eb 11bd af4f a3bd 312b 82bc 99e3 06bd
00000030: c4e7 303b 5a94 25bd 2a5f b5bc 7476 933d
00000040: b2f2 b53c 3dc0 e5bd 2a87 07bd cb3d 3cbd
00000050: 43d9 64bc 1bec e83d 42fb 0e3d a892 3abe
00000060: 682a dd3d 48b2 403c 369d fc3d 27c3 20ba
00000070: ea88 8cbd 0b81 7cbd 184a d13b d081 0e3d
00000080: d0d5 08be 830a 9abd 42ac 803d 3014 ca3d
00000090: 4758 833d 86da e4bc 3648 81bb 3e30 d9bd
000000a0: d625 0abd 7187 5dbd bcef f7bd e0b4 e0bd
000000b0: dc79 10bd c06b b3bd 280c c1bc dcba fbbc
000000c0: ddf6 2ebd cff3 9ebd 0985 d13c 369b 953d
000000d0: 565d cc3b 0817 90bc b8c4 90bd 4429 12bc
000000e0: e623 923c 76c7 16bd 15eb fabd c9b6 5bbd
000000f0: 56c0 f73c 980c da3d df7f b03d a47f 23bd

conv4.weight f4 [128, 64, 3, 3]
-0.07142201 0.03532418 0.017763715 0.072032645 0.07321478 0.036965147 -0.06529692 0.042974897
-0.03224747 0.029693201 0.033564974 0.0031410507 -0.013248841 0.009079298 -0.01839313 -0.013892552
-0.03915561 -0.000719592 -0.0038740095 -0.07158639 -0.10139975 0.09439863 0.004602072 0.058491834
-0.0751545 -0.023433665 -0.050760813 0.040038336 0.02522663 0.026252283 -0.16239297 -0.14678884
-0.058231115 0.010921982 -0.049559914 0.067549996 0.07558407 -0.02715343 -0.030124057 0.022414815
0.035446856 -0.10937484 -0.012947974 0.045598757 -0.01789545 -0.0016764477 0.0071929535 -0.013980719
-0.013967894 0.0031515837 0.0336399 -0.13003507 0.039228804 0.049139105 0.016757505 0.033772875
0.046859752 -0.04988985 0.021770189 -0.043371942 -0.05701541 -0.013432566 -0.01149491 0.11940022
0.176158 0.12544197 0.034967527 0.049801823 -0.07527152 -0.117238425 -0.06639747 -0.117225416
0.0005765547 0.063191734 0.010425773 0.032149572 0.06843996 -0.14031179 -0.095850796 -0.00475283
-0.056128114 0.03137468 -0.040997397 0.0019682404 -0.0317056 -0.030384233 0.0326844 0.0099599715
-0.027926082 -0.0062837675 0.053808343 0.011668571 0.025303962 0.0034521103 -0.042313386 -0.04784541
-0.045769867 -0.023740197 0.004917771 0.05430351 -0.08014497 0.03215782 0.08857034 -0.010325624
0.01457185 -0.021205701 -0.044073936 -0.029312745 -0.08748395 -0.04079821 -0.0978044 0.11162757
0.045237496 0.10864335 -0.062453493 -0.014070467 0.005336965 -0.058596265 -0.02719415 0.045074053
-0.029649448 -0.053529654 -0.10029807 0.050194573 -0.042371966 -0.01815114 0.043962326 -0.07291561
-0.007394137 -0.10462405 0.036016867 0.07202591 0.016683245 0.08539996 0.07049468 0.03227821
-0.1406374 -0.067842215 -0.057689607 -0.21129073 -0.045887593 0.07109108 -0.106832646 -0.07027764
0.086211435 0.074543975 0.016130757 -0.16198632 -0.11876488 -0.14771716 0.055782102 0.005163718
0.13280413 0.014688316 -0.032131556 0.004316294 -0.11959766 -0.029718582 -0.053995267 0.12304142
0.11878869 -0.0044802646 0.009847832 -0.018329637 -0.0026459645 0.017202383 -0.0039247517 -0.033444125
-0.026445076 0.0020385927 0.024603058 0.16728391 0.017858401 -0.07918339 -0.032474097 0.07518245
-0.091925204 -0.08576206 -0.058233358 -0.029426055 0.0077275764 -0.055681147 -0.023296699 -0.010607817
0.05862204 -0.01474086 -0.13495113 -0.09576722 -0.0884767 -0.032655474 0.0071982117 -0.0010948987
0.055584975 0.07258608 0.06788609 -0.030118527 -0.057346288 0.014594869 0.06657094 -0.024323987
-0.06664073 0.0054478333 -0.043628644 -0.104521856 0.09775181 0.0012765501 -0.009662746 -0.05775875
-0.011893833 -0.0727954 0.0112086525 0.11340301 0.057001434 0.023961805 -0.0009697413 0.011628631
0.04747856 0.022857916 0.053247057 0.028781781 -0.019766314 0.039698664 -0.04807042 -3.5390443e-05
-0.06067655 -0.06926006 -0.007082715 0.0053187795 0.016917638 0.0037894158 0.031035969 -0.07979891
-0.08536085 -0.008142547 0.06976033 0.0055863895 0.10476739 -0.052972704 -0.07383003 -0.022105588
0.002388903 0.053472884 0.06231059 0.08064475 -0.017465383 0.023652185 0.071016885 -0.013761185
-0.019598696 -0.0134505695 -0.019696278 0.023636624 0.03434727 0.10217189 0.081372716 -0.05585639
00000000: b445 92bd 16b0 103d 3685 913c da85 933d
00000010: a1f1 953d c468 173d 64ba 85bd 7206 303d
00000020: ec15 04bd 283f f33c 6d7b 093d 16da 4d3b
00000030: ab11 59bc 56c1 143c 30ad 96bc 969d 63bc
00000040: a261 20bd 00a3 3cba 18e3 7dbb e39b 92bd
00000050: acaa cfbd 1254 c13d facc 963b 2295 6f3d
00000060: 9aea 99bd f5f7 bfbc 92ea 4fbd 3dff 233d
00000070: 14a8 ce3c 070f d73c 584a 26be d04f 16be
00000080: c083 6ebd 1df2 323c 56ff 4abd a757 8a3d
00000090: d2cb 9a3d df70 debc bac6 f6bc 469f b73c
000000a0: b930 113d ebff dfbd bd23 54bc c3c5 3a3d
000000b0: 7b99 92bc 40bc dbba deb2 eb3b 630f 65bc
000000c0: 98d9 64bc cd8a 4e3b fec9 093d ea27 05be
000000d0: 62ae 203d 1646 493d 0947 893c 6d55 0a3d
000000e0: 03f0 3f3d 4d59 4cbd 6557 b23c c7a6 31bd
000000f0: fe88 69bd 4414 5cbc 2655 3cbc 1a88 f43d
00000100: c362 343e dc73 003e 1c3a 0f3d fffc 4b3d
00000110: f427 9abd b31a f0bd 66fb 87bd e113 f0bd
00000120: ee23 173a ab6a 813d ddd0 2a3c 45af 033d
00000130: 402a 8c3d e5ad 0fbe 6c4d c4bd a1bd 9bbb
00000140: 98e6 65bd bd82 003d e3ec 27bd 98fd 003b
00000150: bbdd 01bd 5be8 f8bc 14e0 053d 262f 233c
00000160: 3dc5 e4bc 10e8 cdbb 2366 5c3d 892d 3f3c
00000170: 414a cf3c cd3c 623b cd50 2dbd 8cf9 43bd
00000180: 2f79 3bbd cd7a c2bc 4125 a13b 5b6d 5e3d
00000190: 0c23 a4bd ebb7 033d 5e64 b53d ce2c 29bc
000001a0: c5be 6e3c 94b7 adbc df86 34bd 4821 f0bc
000001b0: c92a b3bd 061c 27bd ac4d c8bd ff9c e43d
000001c0: f44a 393d 6880 de3d 3ccf 7fbd d187 66bc
000001d0: b5e1 ae3b a302 70bd 44c6 debc 929f 383d
000001e0: 66e3 f2bc e941 5bbd 1369 cdbd d398 4d3d
000001f0: 3a8e 2dbd b3b1 94bc d711 343d c854 95bd
00000200: 844a f2bb 2245 d6bd 6c86 133d 5282 933d
00000210: 4dab 883c 2de6 ae3d 845f 903d 2836 043d
00000220: 4003 10be dcf0 8abd f04b 6cbd 995c 58be
00000230: a1f4 3bbd 3398 913d 13cb dabd b9ed 8fbd
00000240: 9f8f b03d 83aa 983d a624 843c bedf 25be
00000250: 003b f3bd 2b43 17be c67b 643d 6834 a93b
00000260: cefd 073e 43a7 703c 619c 03bd b36f 8d3b
00000270: 9eef f4bd 6274 f3bc 242a 5dbd 24fd fb3d
00000280: 7c47 f33d 2fcf 92bb cd58 213c 0928 96bc
00000290: eb67 2dbb 03ec 8c3c 349b 80bb b5fc 08bd
000002a0: 58a3 d8bc e999 053b 5a8c c93c 794c 2b3e
000002b0: c84b 923c e72a a2bd 8f03 05bd 42f9 993d
000002c0: 4843 bcbd 05a4 afbd 1a86 6ebd e90e f1bc
000002d0: 9c37 fd3b ea11 64bd b8d8 bebc 69cc 2dbc
000002e0: aa1d 703d a683 71bc a130 0abe 9b21 c4bd
000002f0: 4633 b5bd bfc1 05bd fade eb3b b482 8fba
00000300: 12ad 633d 03a8 943d dd07 8b3d 21bb f6bc
00000310: f1e3 6abd 511f 6f3c 5856 883d 1943 c7bc
00000320: ef7a 88bd bd83 b23b f3b3 32bd 8e0f d6bd
00000330: 1a32 c83d ea51 a73a 7f50 1ebc 7094 6cbd
00000340: 5ade 42bc c115 95bd 7fa4 373c d63f e83d
00000350: 567a 693d 8c4b c43c 3d36 7eba 0386 3e3c
00000360: e178 423d 8640 bb3c 9619 5a3d c5c7 eb3c
00000370: f7ec a1bc 119b 223d 7de5 44bd 3370 14b8
00000380: f987 78bd 38d8 8dbd 1f16 e8bb 2849 ae3b
00000390: dc96 8a3c d957 783b 253f fe3c 9c6d a3bd
000003a0: abd1 aebd 5168 05bc 81de 8e3d 080e b73b
000003b0: 4990 d63d e8f9 58bd 3334 97bd c716 b5bc
000003c0: 248f 1c3b 6206 5b3d 6439 7f3d 1329 a53d
000003d0: 9013 8fbc 3ac2 c13c 4d71 913d 9876 61bc
000003e0: 728d a0bc c75f 5cbc 175a a1bc 98a1 c13c
000003f0: b9af 0c3d 7f3f d13d bda6 a63d acc9 64bd

conv4.bias f4 [128]
0.068777606 -0.0435728 -0.027897928 -0.09439179 -0.06053907 0.0836916 0.00679334 -0.06590537
0.045686975 -0.064592965 0.017131338 0.040910233 0.029632777 -0.0070616766 0.0054467125 -0.009233802
-0.03580875 -0.03901381 0.027819514 0.017741734 0.07895276 0.03238913 -0.032923847 0.016978703
0.0032947646 -0.014776258 -0.10690528 -0.017802387 -0.026741503 -0.009052031 0.0440252 -0.02959122
0.06398318 -0.05290943 0.0089273555 -0.006922094 0.03172222 -0.0687528 0.05577531 -0.027283505
0.014747596 -0.024279378 0.0059518707 -0.015211078 -0.0015419374 0.044486687 0.0287556 0.04367452
-0.059792064 0.041326776 -0.01017047 -0.07182823 0.106464416 0.019728819 -0.057566553 0.059637763
-0.005440893 0.045259457 -0.036868542 -0.020753615 0.014218237 0.03949314 -0.032628518 -0.056997042
0.023576425 0.059938986 0.014459123 -0.043858483 -0.034307092 0.06459902 0.021650072 0.05581059
0.055225674 -0.016271027 -0.03521449 -0.04814807 -0.05688425 -0.03121693 0.006941213 -0.044400014
-0.030839413 -0.024600254 -0.0015872198 0.010833144 -0.04637904 -0.063723244 -0.024790976 -0.025370698
0.004825309 -0.030339582 0.025723431 -0.02470774 0.0202483 0.039139297 0.029007185 -0.017219866
0.020817047 -0.025409305 0.0018770417 -0.012094224 0.018212408 0.013787584 0.0028482834 0.012580665
0.027391052 0.0074864663 -0.009268533 0.037213657 -0.0045443904 -0.008052258 0.040347006 -0.021282513
-0.05448107 0.026104866 -0.014404479 0.057614718 0.009513967 -0.056059424 -0.008507826 -0.024924293
-0.0035409438 -0.024837462 -0.04313442 0.06483999 -0.02620478 -0.060310133 -0.001865394 0.09561018
00000000: 46db 8c3d 6479 32bd 328a e4bc 7c50 c1bd
00000010: d1f7 77bd 8066 ab3d ab9a de3b 65f9 86bd
00000020: 4422 3b3d 5149 84bd 0557 8c3c 7d91 273d
00000030: 70c0 f23c a365 e7bb 567a b23b 5f49 17bc
00000040: 32ac 12bd f2cc 1fbd c0e5 e33c 1d57 913c
00000050: fcb1 a13d 77aa 043d 28db 06bd ec16 8b3c
00000060: faec 573b 1e18 72bc 28f1 dabd 50d6 91bc
00000070: ff10 dbbc f84e 14bc c553 343d 4969 f2bc
00000080: 9d09 833d 8fb7 58bd 0b44 123c bcd2 e2bb
00000090: 29ef 013d 45ce 8cbd a774 643d a881 dfbc
000000a0: e79f 713c 8ce5 c6bc e907 c33b e337 79bc
000000b0: d51a caba ac37 363d dd90 eb3c 0ee4 323d
000000c0: 86e8 74bd 4446 293d 0ba2 26bc ae1a 93bd
000000d0: 040a da3d 559e a13c e8ca 6bbd ba46 743d
000000e0: 8549 b2bb fb61 393d 7803 17bd 7c03 aabc
000000f0: 9cf3 683c 8fc3 213d 7ba5 05bd bb75 69bd
00000100: 5923 c13c 9582 753d f5e5 6c3c f4a4 33bd
00000110: 9885 0cbd 7e4c 843d 7e5b b13c a599 643d
00000120: 5134 623d d14a 85bc 123d 10bd e936 45bd
00000130: 76ff 68bd a6ba ffbc 1d73 e33b cadc 35bd
00000140: f0a2 fcbc 7986 c9bc 420a d0ba 807d 313c
00000150: f3f7 3dbd 5581 82bd 7216 cbbc 36d6 cfbc
00000160: a01d 9e3b b78a f8bc f2b9 d23c e367 cabc
00000170: c3df a53c 8750 203d 7aa0 ed3c ad10 8dbc
00000180: 8388 aa3c 2d27 d0bc 1107 f63a da26 46bc
00000190: 3032 953c 52e5 613c 44aa 3a3b 221f 4e3c
000001a0: 3363 e03c 0851 f53b 0cdb 17bc 596d 183d
000001b0: 1ce9 94bb 9eed 03bc e742 253d aa58 aebc
000001c0: 8b27 5fbd dfd9 d53c c400 6cbc 69fd 6b3d
000001d0: 78e0 1b3c 919e 65bd 6964 0bbc 082e ccbc
000001e0: 2e0f 68bb ef77 cbbc b8ad 30bd d4ca 843d
000001f0: 68ab d6bc c207 77bd 3c80 f4ba 45cf c33d

final_conv.weight f4 [50, 128, 1, 1]
0.13651426 -0.079838425 -0.021087267 -0.03893135 -0.1489145 -0.0050113155 0.090069726 -0.016097046
-0.2665746 -0.059792325 -0.08929044 -0.14061636 0.045144312 -0.066626035 0.07275552 -0.05706178
-0.002686429 -0.0058545466 -0.04693167 -0.012003092 -0.10858236 -0.0613807 1.7123679e-05 -0.07692395
-0.006449499 -0.010500592 -0.043917395 -0.00678232 0.016119454 -0.049189087 0.09412952 -0.12292578
-0.03503754 -0.028382547 -0.066370614 -0.008466526 -0.017632222 0.00075090484 -0.009230756 0.010525994
0.07085719 -0.0310658 -0.08672414 -0.032383405 -0.12814045 -0.052325632 -0.011459656 0.034282774
-0.06841401 0.084558025 -0.04033335 0.06129773 -0.039014503 0.08419872 0.036705706 -0.03065906
0.10891217 0.15941183 -0.05982332 -0.086698145 0.09394625 -0.056040663 -0.0760056 -0.18018371
0.036298048 0.03653305 -0.012204769 0.034825653 0.03582308 -0.12987094 0.057383325 0.03743872
0.11755353 0.047239438 0.009446484 0.02781939 0.03890177 -0.01874995 0.017587883 -0.0033352298
-0.052349884 0.064086504 -0.06222725 0.043365255 0.0554626 0.0097170565 0.06861521 0.052302737
-0.35850987 -0.09462368 -0.059703156 0.09339004 -0.06464108 0.06920578 0.043365065 -0.062308405
0.011681912 -0.041936368 -0.021212038 -0.0318983 -0.018151363 -0.06831331 -0.08477681 0.04505936
-0.058175106 -0.002173894 -0.049933843 0.07555974 0.078428164 -0.0041229483 0.07698983 -0.011600651
0.026001435 -0.037413668 0.013526231 -0.079920724 0.054468516 0.015947746 -0.029320553 0.03819177
-0.16392422 0.074793994 -0.009949958 -0.03146179 0.015114917 0.038137466 0.10006153 0.028787903
-0.037175 -0.045702092 0.0055374186 0.040182833 0.06452171 0.039221194 -0.019641038 0.03776995
0.11285358 -0.09617131 0.0052057565 -0.15457737 0.039524674 -0.13648885 -0.06674963 0.025570288
-0.09093424 -0.04600777 -0.017728427 -0.14805984 -0.020212686 0.10112324 0.06520517 -0.037437562
0.054926336 -0.068928696 -0.039049443 -0.01714033 0.07896893 -0.082893685 0.07271492 0.090578474
-0.15530671 0.010299567 -0.011743679 -0.07995853 -0.17775083 0.029569704 0.0361475 -0.037939377
-0.10822474 0.065984145 -0.27282938 -0.011752721 -0.02477538 0.05638983 0.04486609 0.04932729
0.07042571 -0.0706796 0.05214243 -0.0028830112 0.11006812 -0.009278686 -0.014595311 -0.041728176
-0.04154876 0.00041840656 -0.051088925 0.038915817 0.005380948 -0.0055454164 0.029806575 0.08753233
0.00032937844 0.03712411 -0.02194763 -0.029991211 0.008777146 -0.032650117 0.07712104 0.023126772
0.03568046 0.009134111 0.06771428 -0.048389487 0.04005344 0.054710533 -0.09665094 -0.05888626
-0.04167059 -0.04979078 -0.022623286 -0.034930997 -0.059594154 0.1428595 0.033373643 -0.053992707
0.0034161073 -0.015471042 0.04806359 -0.06352167 -0.0031813993 -0.07334879 -0.047470763 0.02391098
-0.06365257 0.024879292 0.027466943 -0.03952796 0.033976614 -0.10895657 -0.028178405 0.022673322
-0.11185018 0.016153835 0.022529075 -0.14963602 -0.008614795 -0.007858465 0.011247725 0.05052344
0.06885772 -0.07630013 -0.036128014 0.021616269 -0.007288107 0.007976265 -0.06093565 0.03244064
0.004272817 -0.03693478 0.02041942 0.007062015 -0.022661611 0.016031345 -0.025952702 -0.0029391053
00000000: 65ca 0b3e 5482 a3bd 34bf acbc 7b76 1fbd
00000010: 0b7d 18be f635 a4bb 7a76 b83d f4dd 83bc
00000020: 777c 88be cce8 74bd e8dd b6bd bcfd 0fbe
00000030: 3ee9 383d 3b73 88bd d900 953d 9db9 69bd
00000040: cd0e 30bb 7fd7 bfbb 6c3b 40bd 9ea8 44bc
00000050: 6e60 debd 546a 7bbd d2a4 8f37 4e8a 9dbd
00000060: 5256 d3bb ad0a 2cbc bae2 33bd 393e debb
00000070: f20c 843c 7f7a 49bd fac6 c03d 83c0 fbbd
00000080: 8683 0fbd 8482 e8bc 51ed 87bd 2fb7 0abc
00000090: 7371 90bc 5fd8 443a 993c 17bc 3875 2c3c
000000a0: 931d 913d b47d febc 6d9c b1bd 76a4 04bd
000000b0: 4037 03be 6753 56bd 48c1 3bbc 186c 0c3d
000000c0: a51c 8cbd c22c ad3d 9534 25bd 5413 7b3d
000000d0: accd 1fbd 6170 ac3d b958 163d b628 fbbc
000000e0: 580d df3d db3c 233e 4c09 75bd cc8e b1bd
000000f0: e466 c03d e58a 65bd d3a8 9bbd 1482 38be
00000100: 43ad 143d aea3 153d 83f6 47bc 58a5 0e3d
00000110: 39bb 123d e3fc 04be c70a 6b3d 5859 193d
00000120: e8bf f03d 247e 413d 6dc5 1a3c 7de5 e33c
00000130: 7657 1f3d 7f99 99bc 7714 903c df93 5abb
00000140: d56c 56bd c93f 833d 00e2 7ebd c49f 313d
00000150: c02c 633d 4a34 1f3c 2286 8c3d 653b 563d
00000160: 9b8e b7be 0fca c1bd 4c8b 74bd 4743 bf3d
00000170: 8b62 84bd c3bb 8d3d 919f 313d 1937 7fbd
00000180: 7d65 3f3c 78c5 2bbd dec4 adbc cba7 02bd
00000190: 2bb2 94bc d9e7 8bbd 779f adbd 2a90 383d
000001a0: 0549 6ebd e477 0ebb 6e87 4cbd 11bf 9a3d
000001b0: f29e a03d cc19 87bb d8ac 9d3d a810 3ebc
000001c0: f600 d53c 133f 19bd 209d 5d3c 7aad a3bd
000001d0: 611a 5f3d d9a4 823c a831 f0bc f96e 1c3d
000001e0: c0db 27be 982d 993d 2605 23bc 14de 00bd
000001f0: 8fa4 773c 0836 1c3d 0fed cc3d 9cd4 eb3c
00000200: d044 18bd 1e32 3bbd 3c73 b53b c196 243d
00000210: f523 843d 67a6 203d 3ee6 a0bc aab4 1a3d
00000220: c71f e73d 77f5 c4bd 0d95 aa3b 8849 1ebe
00000230: a0e4 213d bcc3 0bbe 08b4 88bd c878 d13c
00000240: bb3b babd a572 3cbd 353b 91bc 009d 17be
00000250: 1395 a5bc b419 cf3d 4a8a 853d 2158 19bd
00000260: 70fa 603d 7d2a 8dbd 4ff2 1fbd e169 8cbc
00000270: 76ba a13d 2ac4 a9bd 8feb 943d 3581 b93d
00000280: b908 1fbe 84bf 283c 8f68 40bc 4cc1 a3bd
00000290: 5004 36be 2a3c f23c 670f 143d 5266 1bbd
000002a0: efa4 ddbd b222 873d 4bb0 8bbe 7c8e 40bc
000002b0: bdf5 cabc 06f9 663d 81c5 373d 6a0b 4a3d
000002c0: 5b3b 903d 77c0 90bd 4d93 553d e7f0 3cbb
000002d0: 656b e13d a105 18bc 2c21 6fbc 2aeb 2abd
000002e0: 082f 2abd 945d db39 9f42 51bd 3166 1f3d
000002f0: aa52 b03b 53b6 b5bb eb2c f43c 2644 b33d
00000300: 6db0 ac39 730f 183d 84cb b3bc 21b0 f5bc
00000310: 05ce 0f3c 21bc 05bd a3f1 9d3d 5b74 bd3c
00000320: ad25 123d 3da7 153c c9ad 8a3d 0e34 46bd
00000330: 130f 243d 2718 603d eef0 c5bd b832 71bd
00000340: c8ae 2abd 6bf1 4bbd 7854 b9bc ce13 0fbd
00000350: 0019 74bd c349 123e cdb2 083d 7527 5dbd
00000360: c5e0 5f3b 417a 7dbc 54de 443d a617 82bd
00000370: 067f 50bb e437 96bd b470 42bd f6e0 c33c
00000380: 475c 82bd a8cf cb3c 5b02 e13c 12e8 21bd
00000390: 102b 0b3d 9f24 dfbd 66d6 e6bc 67bd b93c
000003a0: b511 e5bd 0c55 843c e58e b83c 2f3a 19be
000003b0: 1225 0dbc cbc0 00bc 6148 383c abf1 4e3d
000003c0: 4705 8d3d 3e43 9cbd f8fa 13bd 9a14 b13c
000003d0: 13d1 eebb e1ae 023c a997 79bd 7ae0 043d
000003e0: fd02 8c3b ed48 17bd a146 a73c 7a68 e73b
000003f0: d8a4 b9bc 2b54 833c c39a d4bc 019e 40bb

final_conv.bias f4 [50]
0.045409895 -0.048048273 -0.09711417 -0.06403129 0.040833797 -0.16480769 -0.12686284 -0.004285766
-0.0047451663 -0.06366328 -0.044862863 -0.013294996 -0.0026393195 -0.17631407 -0.10658399 -0.112752885
0.03597031 -0.08934799 0.06645172 -0.010779257 -0.05400615 -0.11878329 -0.04156537 -0.07988973
-0.15591301 -0.12107576 -0.12256377 -0.054637995 -0.04446986 -0.0028190038 -0.13026981 -0.05990892
-0.10658098 -0.0772198 0.006117576 -0.067162044 -0.13980047 0.019536976 -0.005317634 -0.038795024
-0.047609337 -0.031420294 -0.029831558 -0.13198146 -0.0044344347 -0.11780525 -0.04108628 -0.042728998
-0.006174807 -0.08470899
00000000: baff 393d 44ce 44bd cbe3 c6bd d622 83bd
00000010: 5741 273d 59c3 28be 55e8 01be 9c6f 8cbb
00000020: 577d 9bbb e561 82bd 1fc2 37bd 41d3 59bc
00000030: 6ff8 2cbb ad8b 34be b548 dabd fcea e6bd
00000040: 9b55 133d 14fc b6bd d717 883d 7b9b 30bc
00000050: 8e35 5dbd a744 f3bd 7340 2abd 3a9d a3bd
00000060: a9a7 1fbe 91f6 f7bd b702 fbbd 17cc 5fbd
00000070: 0726 36bd 09bf 38bb 7365 05be 0e63 75bd
00000080: 2147 dabd 6a25 9ebd f275 c83b 418c 89bd
00000090: db27 0fbe 020c a03c 8c3f aebb 88e7 1ebd
000000a0: 0202 43bd 91b2 00bd 5061 f4bc 2626 07be
000000b0: bc4e 91bb e143 f1bd 164a 28bd 9a04 2fbd
000000c0: 0956 cabb e87b adbd
