models/spec_fcn4.pth (torch, 421780 bytes, 10 tensors)

conv1.weight f4 [16, 1, 3, 3]
000000 df 00 ac bd 57 75 3d bb 9f d7 ad 3d b9 de 50 be
       -0.08398604 -0.0028909051 0.08488392 -0.20397462
000010 c8 f2 e8 bd 9c 72 f9 bd 46 d5 33 be d2 8f 8d bd
       -0.11374432 -0.12180063 -0.17561826 -0.06912197
000020 6f ef 3e 3b 04 8c 8c 3d b5 ae 54 3d 68 38 c3 be
       0.0029134413 0.06862643 0.051924426 -0.38128972
000030 19 bc d4 3d 66 e4 0a 3c a3 13 f6 bc 75 bb 43 3d
       0.10387439 0.008477306 -0.03003866 0.047786195
000040 77 54 02 be cb 7e 91 3e 83 3f a5 3e 4c 5b 1c 3e
       -0.12727533 0.28417048 0.32275018 0.15269202
000050 5a 53 8e 3e 25 36 54 be 8c d3 80 be e5 7c 38 be
       0.27797967 -0.2072378 -0.25161397 -0.18016393
000060 da c2 a7 bd a6 ae 82 bc 4f 60 6e bd 47 5c 8e be
       -0.08191462 -0.01595242 -0.058197316 -0.27804777
000070 3b 42 c1 3d cd 55 98 3e c3 0f 64 be b5 15 b5 3e
       0.094364606 0.2975296 -0.22271638 0.35368124
000080 9e 57 12 3e dc 82 42 3d 1d 20 68 3e 00 dc 00 3e
       0.14291236 0.04748808 0.226685 0.12583923
000090 50 e5 dc bb d7 7a aa 3e 7d 11 00 3e d8 9f 21 be
       -0.0067412034 0.33296844 0.12506671 -0.15783632
0000a0 ef ce 0c 3e 52 96 42 3e 67 ec 61 be 75 01 c2 bd
       0.13750814 0.19002655 -0.22062837 -0.09472934
0000b0 18 72 77 be 84 9e 40 be fa 07 eb bd 16 6c 6a be
       -0.24164617 -0.18810469 -0.11476131 -0.22892794
0000c0 d8 09 48 3d e4 40 5d be 34 98 a3 3b e7 b6 c4 bc
       0.048837513 -0.21606785 0.0049925093 -0.024012996
0000d0 23 db 4e 3e 7a 5f e6 3d c1 7c da bd e8 c3 77 3e
       0.20200782 0.112486795 -0.10668326 0.24195826
0000e0 7d 80 e3 3d 35 f6 d7 be a6 44 a3 3e 13 34 10 be
       0.111084916 -0.4218003 0.31888312 -0.14082365
0000f0 0f 4f e6 be 7a 89 ad 3e cb 92 88 3e ce fb 81 3d
       -0.44982192 0.3389395 0.26674494 0.06346856
000100 a3 f8 ed 3d 42 ae 85 3e 46 fb 97 3e 5b 1f ea bd
       0.11619689 0.2610951 0.29683894 -0.11431762
000110 36 a9 80 3e 38 c1 ff 3a 1d 75 4b be 5c d7 22 be
       0.25129098 0.001951254 -0.19868894 -0.15902466
000120 fc 50 ae 3e 14 89 91 3e f5 bc 68 3e 6e db f7 3d
       0.3404616 0.28424895 0.22728331 0.121024
000130 d9 60 36 be 17 de f1 bd 86 4d 88 be 22 7d 8a bc
       -0.17810382 -0.118099384 -0.26621646 -0.016905371
000140 0b 73 90 3d 77 30 d5 bd e5 bd 31 3d f4 80 76 bc
       0.07053193 -0.104096346 0.04339399 -0.015045393
000150 2c d9 1a be 65 2d 1f 3d 08 58 63 3e 91 e5 3a 3e
       -0.15121907 0.03886165 0.2220155 0.18251635
000160 89 20 e0 bd aa 44 ba 3e 13 52 25 bd ce 90 db bd
       -0.109437056 0.36380512 -0.040361475 -0.10720979
000170 08 35 69 be c8 b1 55 be 3e 31 d4 3d 46 6e 40 bc
       -0.22774136 -0.208686 0.10360955 -0.011745041
000180 60 56 64 3e 12 ff 90 3d 8c 5b 7d 3e 28 e0 15 3e
       0.22298574 0.07079901 0.24741954 0.1463629
000190 91 02 80 3e 0c 85 43 3e 62 b2 53 3e fe 1b 91 bd
       0.25001958 0.19093722 0.20673516 -0.07085417
0001a0 82 d6 8f 3d 85 a4 20 be 18 3d 4d 3e 00 b0 3d be
       0.07023336 -0.15687759 0.20042837 -0.1852417
0001b0 2e b9 31 3e 82 61 b3 bd 63 82 32 3e d2 42 5f bc
       0.17355797 -0.087588325 0.17432551 -0.013626771
0001c0 d7 96 c4 bb 37 0e 50 3b 23 7c 85 3d 08 56 82 be
       -0.005999427 0.0031746754 0.06517818 -0.25456262
0001d0 f5 83 68 be fb 0d 6b be d0 36 57 bd d9 a5 8f 3e
       -0.22706588 -0.22954552 -0.052542508 0.2805622
0001e0 f5 18 b5 3d 4e 46 ab be 60 be a4 3e cc 34 45 bd
       0.08842651 -0.33452076 0.32176495 -0.048146054
0001f0 af b0 95 3d 3a df 5d bd 45 45 c1 3e c6 41 30 3e
       0.0730909 -0.054167964 0.3774816 0.1721259
000200 33 c9 72 3d fb 78 c0 3e a9 09 94 be 44 66 26 be
       0.05927391 0.375923 -0.2891362 -0.16249949
000210 40 b2 33 3e cf 55 84 be 61 bc 2b be af c5 1a 3e
       0.17548466 -0.25846717 -0.1677108 0.15114473
000220 f0 3d 6e be 6e 38 15 3e 92 f4 38 3e 4c b6 53 be
       -0.23265815 0.14572307 0.18062046 -0.2067501
000230 f8 e1 8e 3e ac 73 4c be 4b da 7f 3e 2e e0 3e be
       0.27906775 -0.19966 0.24985616 -0.18640205

conv1.bias f4 [16]
000000 6d 95 73 3d 53 80 78 bd b0 37 c0 bd 96 a5 5b 3d
       0.059468675 -0.060669255 -0.093856215 0.053624712
000010 97 74 c0 be 57 a8 63 be be c8 43 3e 22 ed c7 bc
       -0.3758895 -0.22232185 0.19119546 -0.024405066
000020 27 85 c0 3d 62 a9 52 be c1 df 42 be 6f c4 93 be
       0.09400397 -0.20572427 -0.19030668 -0.28860804
000030 4b 4e d6 bc b2 44 04 3d 0e 55 cb 3d a8 4e ff be
       -0.02616038 0.032292075 0.09928332 -0.49864697

conv2.weight f4 [32, 16, 3, 3]
000000 5b 93 25 bd c6 a5 68 3a 0b ec d7 3c 03 41 99 bd
       -0.040423732 0.00088748 0.026357671 -0.07483103
000010 23 ca a2 bd 4e ad 26 be 7f 1d 49 3d e4 ae a5 3d
       -0.07948711 -0.16277048 0.049100395 0.08089998
000020 1e 38 10 be 7f d5 8c bd e0 e7 9d bd fe 5f 31 3d
       -0.14083907 -0.06876659 -0.07710242 0.043304436
000030 73 99 04 bc 8d d7 17 3d fb f3 24 bd 49 8c 97 3d
       -0.008093226 0.0370708 -0.04027174 0.07399804
000040 db 08 65 3c 71 6e af bd 76 03 45 bd 65 18 5a be
       0.013979162 -0.08565987 -0.048099004 -0.21298368
000050 2e 8e 31 be b3 97 c5 bd 07 5d 71 be 62 77 8e be
       -0.17339393 -0.09648075 -0.23570643 -0.27825457
000060 78 ef 0f bd 7e d4 7a be 0b fc 4b be 67 7c 16 bd
       -0.035140485 -0.24495122 -0.19920366 -0.036739733
000070 0d a8 d8 3d 82 78 4b bd 76 db 8f 3d 3e b5 4c bc
       0.10578928 -0.049675472 0.07024281 -0.012494383
000080 2d dc 36 bd 65 38 a7 3d b8 56 6d 3d 9a 65 4a 3d
       -0.04464357 0.08165053 0.05794403 0.0494133
000090 b7 2a ad bd 0f 25 44 bd 96 34 1c be 19 cb ef bc
       -0.08455413 -0.047886904 -0.15254435 -0.02927165
0000a0 3d 71 98 bd c5 74 f3 bc 46 41 c0 3c 4d 85 cc 3b
       -0.074434735 -0.029718766 0.023468625 0.0062414766
0000b0 5e 88 13 be fa 61 23 be d1 70 f4 bd 7d ea 82 bd
       -0.14407489 -0.15955344 -0.119355805 -0.06392381
0000c0 11 64 5a be 57 28 0c be 24 25 c4 bd d8 36 5d bd
       -0.21327235 -0.13687263 -0.095773965 -0.05400738
0000d0 9c 2a af be 44 2e 39 be 7f 01 08 bc 21 0a 85 bb
       -0.34212196 -0.18084055 -0.008301138 -0.0040600454
0000e0 56 5a 22 3d 2b ef c8 3d 48 e3 ff 3b bc 9d 19 bd
       0.039636932 0.09811243 0.0078090765 -0.037503943
0000f0 91 85 6e bc f1 14 b3 3d 56 f5 67 bd b9 51 ac bc
       -0.014558212 0.08744229 -0.056630455 -0.021035062
000100 49 49 75 bc e2 69 8b bd a5 99 c5 3d 4c d0 e7 bb
       -0.014971086 -0.06807305 0.09648446 -0.0070743915
000110 95 d0 5a 3d 5c 64 20 3c 66 8f 2e 3d 16 e9 08 3d
       0.053421576 0.009789553 0.042617224 0.033425413
000120 18 08 17 3d 37 b0 2a 3d 41 a1 2f 3c 69 06 cb 3a
       0.036872953 0.041671958 0.010719598 0.0015489581
000130 5b 7c 97 3c bc 8f 44 3b fe 04 dc 3c a9 9e db 3b
       0.018491914 0.00299929 0.02685785 0.0067022634
000140 8a b9 61 bd 59 16 53 3a 3c 86 51 3d 15 b8 cd 3c
       -0.055108584 0.0008052341 0.051153407 0.025112191
000150 9c 2c 91 bc 3f 53 ed 3b d6 1c 60 3d c0 51 70 3c
       -0.017721467 0.0072425897 0.054715 0.014667928
000160 fc 2a 00 3d e9 e7 45 3d a9 a6 90 bc 9f 98 ff 3c
       0.031290993 0.04831687 -0.017657595 0.031200705
000170 4f a8 95 bc 8c 8b c5 bd 2c 1e b9 bd 74 16 de bd
       -0.018268732 -0.09645757 -0.09038958 -0.10844126
000180 67 ca b1 bd 5b 4e 35 bd cb 01 3d bd e7 94 c0 3d
       -0.08681183 -0.04426418 -0.046144288 0.09403401
000190 ca c8 be bc 30 7b 0f 3d 11 fa 10 bd be 1b 69 3c
       -0.023289103 0.03502959 -0.035394732 0.014227806
0001a0 e3 58 a7 3c dc 92 24 bc b0 a3 1d bc 06 23 07 3d
       0.020428127 -0.01004478 -0.009621546 0.032992385
0001b0 30 71 c2 bd 13 2f 41 bd 36 f8 f5 bd 11 d0 51 be
       -0.09494245 -0.047164034 -0.12010233 -0.20489527
0001c0 3b 5f 85 be 79 2b 35 be 6b 2e 23 3d 64 20 3f be
       -0.26049218 -0.17692365 0.03983919 -0.186647
0001d0 ac e0 85 bd 8d 5c e5 3d 14 a9 85 bd 95 ec 10 bc
       -0.065369934 0.11199293 -0.0652639 -0.008845468
0001e0 a5 25 f3 3d 49 6c 3f bd 7c 8b 97 bd 8a 22 95 3d
       0.118724145 -0.04673413 -0.073996514 0.072819784
0001f0 f6 f8 cb bd e9 e8 d6 bc 58 a7 1d bb 54 ef 54 3d
       -0.09959595 -0.026234107 -0.0024056043 0.051986054
000200 d0 b1 f4 b9 31 6b 27 bc 7e a7 43 bc d9 75 ad ba
       -0.00046671787 -0.0102184275 -0.011941789 -0.0013233974
000210 95 e2 9c bd bf 7f c2 bd 14 65 f5 bc 73 64 9a 3d
       -0.076604046 -0.09497022 -0.029955424 0.075386904
000220 e1 f6 aa bb ec 21 81 3d 8b 54 20 bd 36 ae b6 3d
       -0.0052174185 0.06305298 -0.039143126 0.08919947
000230 0f f9 f6 3c f9 af c3 3d 27 df 7d 3c 0b 46 94 bd
       0.030148057 0.095550485 0.015495098 -0.07239922
000240 b7 86 c4 3d ed d7 26 bc c6 57 47 bc ef 37 f7 3d
       0.09596007 -0.010183317 -0.012166923 0.12071215
000250 1f 5e f6 bd 47 be 74 bd b9 38 d9 3d 40 e6 84 bd
       -0.12029671 -0.059751775 0.10606522 -0.06489229
000260 35 9e 0e 3d 4f 48 30 3b f9 70 3f bd 23 8f 37 3d
       0.034818847 0.0026898568 -0.0467386 0.04481424
000270 98 f8 20 3d 8f 2d 97 bd 86 35 85 bd 37 25 51 3c
       0.039299577 -0.073817365 -0.065043494 0.01276522
000280 29 46 39 be d2 80 81 be 1f 34 f3 bc e7 22 f9 bd
       -0.1809317 -0.25293595 -0.02968794 -0.1216486
000290 cc 00 04 be 13 c0 61 3d ee bd 24 be 09 a2 65 bd
       -0.12890929 0.055114817 -0.16088077 -0.056062732
0002a0 de a9 9f 3d 1a 30 fd 3c 32 54 a8 bc 1d 54 62 3a
       0.077960715 0.030906726 -0.02054796 0.00086337497
0002b0 9e 9e 05 3d 40 6b 24 3d cf fd c6 bc 0e d8 34 bc
       0.032621972 0.040141344 -0.024290947 -0.01103784
0002c0 94 ec 2e bd 65 2e f0 bd ef 9b 91 bd 00 6a fc bc
       -0.042706087 -0.11727599 -0.0710982 -0.030812263
0002d0 d2 37 c1 bd b9 42 ca bd 91 8c 65 bd 1c 5a 40 3d
       -0.09434475 -0.098760076 -0.056042258 0.046960935
0002e0 bd 00 ac bb d4 8e 74 bc 3a 05 d1 3d b7 7f 4c 3d
       -0.0052491114 -0.014926631 0.10206075 0.049926486
0002f0 e0 65 09 3e bc c2 10 3e e5 a9 ad bb b2 2b 67 3d
       0.13417768 0.14136785 -0.005299794 0.056438155
000300 51 8d 0b 3d f6 7f c8 bd 30 e4 ef bd 8b e4 d8 3c
       0.034070317 -0.097900316 -0.11713445 0.026476165
000310 28 16 30 be 23 83 d5 bd 4d db af 3d 5d 6a 8a 3b
       -0.17195952 -0.10425403 0.0858675 0.0042241053
000320 b1 57 a8 bc cb e8 6d 3d 1f 67 c6 bd ac ad 09 be
       -0.020549627 0.058083337 -0.096876375 -0.13445157
000330 a8 85 c1 3c 4c e7 20 bd e5 9c 20 be 9e fc 13 bc
       0.023623303 -0.039283082 -0.1568485 -0.009032397
000340 0e 10 c0 bd 1f 94 10 bd 23 e9 84 bd 72 1c 0c bd
       -0.09378062 -0.03529751 -0.0648978 -0.034206815
000350 1c 0c a3 bd 10 a6 f3 bd f4 4b 37 bc bb 34 83 bc
       -0.07961294 -0.11896908 -0.011187542 -0.016016355
000360 bd e8 77 3b 31 84 b1 bc bb da 66 bc 76 22 14 be
       0.0037827932 -0.02166948 -0.014090235 -0.14466271
000370 f8 e0 c8 bd 0a 6b bf bd 6a 78 22 bd 4f bd 1f 3d
       -0.098085344 -0.09346588 -0.039665617 0.038998898
000380 b1 d7 89 3d e5 59 c9 bd 60 0f db bd 55 f0 5a 3d
       0.06730593 -0.09831599 -0.10696292 0.053451855
000390 5a 60 df bd e1 53 b2 bd 3b 73 98 3c c1 c7 a7 bc
       -0.109070495 -0.08707405 0.018609634 -0.020480992
0003a0 1f 91 68 bc b7 44 73 3d 47 3c 45 3d a2 db 74 3d
       -0.014194756 0.059391703 0.048153188 0.05977977
0003b0 f7 b8 e3 bc 42 86 63 bc f8 0a bd bc 8f d7 43 bd
       -0.027798159 -0.01388699 -0.02307652 -0.047812995
0003c0 57 a9 53 be 3a 8b 7e be 0c f6 62 be 8a 5b e5 bd
       -0.20670067 -0.24857798 -0.22164172 -0.111991
0003d0 85 ab b4 bb 6c 10 e2 3d 57 89 d1 bd 54 aa a0 3c
       -0.005513611 0.110382885 -0.102312736 0.019612469
0003e0 da 8f 98 3c d6 5a 0b be 97 95 46 ba e3 9e cc bd
       0.018623281 -0.1360887 -0.0007575391 -0.09991243
0003f0 9a 62 44 bd e6 50 ef bd ac 8e 94 bd cb be d9 bb
       -0.047945596 -0.11685352 -0.07253775 -0.0066450587

conv2.bias f4 [32]
000000 db 74 2c 3c da e1 91 3d 52 ad 55 bd 75 57 d2 bc
       0.010525907 0.07123156 -0.052167244 -0.025676468
000010 02 e0 1c 3d ae 83 58 bd 7e e7 f1 3c d2 6c 7b 3d
       0.038299568 -0.052859955 0.02952933 0.061383076
000020 99 eb 19 be 32 71 3d 3d 1b d9 af bd eb c3 1a bc
       -0.1503128 0.04625053 -0.085863315 -0.009446125
000030 cc d9 63 3c c5 a9 12 3d 67 68 dd bc 25 b3 48 bc
       0.013906907 0.035806436 -0.027027322 -0.012249743
000040 8b 58 57 bd b8 46 b1 bd 21 00 e4 bc 39 9c 35 3d
       -0.052574676 -0.08656067 -0.027832093 0.04433844
000050 b2 cb 4d bd d3 43 66 bd 4f 5d 54 3d b8 fd 1c be
       -0.050243087 -0.056217026 0.0518468 -0.15331161
000060 5f 06 e7 3d da af eb bd 08 07 77 3d 56 83 bb 3d
       0.11280512 -0.115081504 0.06030944 0.0915591
000070 31 90 c1 bd 9e 8a 5d 3d 34 ff 61 bc 71 ab a6 3d
       -0.094513305 0.054087274 -0.013793755 0.081381686

conv3.weight f4 [64, 32, 3, 3]
000000 89 f6 20 bc 42 72 b2 bc b5 7c dc bc 54 0b 55 bd
       -0.009824404 -0.021782998 -0.026914934 -0.052012756
000010 72 94 10 3d 1d 07 34 bc 16 4c b5 ba 1b 58 93 bd
       0.03529782 -0.010988024 -0.001383188 -0.07194539
000020 52 55 2f 3c 2f b8 58 bd b5 ea 73 3d 7c de 6a bd
       0.010701494 -0.052910026 0.059550006 -0.057341084
000030 69 ed a1 bd fe 91 8e bc ee f1 d1 bd 60 f2 c7 3c
       -0.079066105 -0.017403599 -0.102512226 0.024407566
000040 7b 47 0d bd 50 e4 a9 3d 80 92 02 3d 91 2e d3 bd
       -0.034491997 0.082955 0.031877995 -0.10311616
000050 f8 6d 0f 3d d2 d6 c2 bc ff 05 49 3d 9d 43 c5 3c
       0.035016984 -0.023784075 0.049077984 0.024080092
000060 34 be e7 bd 45 94 67 3b 24 eb a7 bd 35 43 9b 3c
       -0.11315575 0.0035336178 -0.081991464 0.018952945
000070 69 b1 36 bd 2d 62 1a 3d 43 51 e7 bc b2 7d 08 bd
       -0.044602785 0.037691284 -0.02823699 -0.033322997
000080 d1 9a 04 3d e6 a2 9e bc 49 d0 70 bc b3 af 35 bd
       0.032374207 -0.019364785 -0.014698097 -0.044357013
000090 bf 08 76 bd 13 56 26 bd 73 da cb bd 4e 8b 8f bc
       -0.060066935 -0.04060943 -0.09953775 -0.01752248
0000a0 99 06 04 be 03 c1 36 bd 99 d9 63 bb e4 aa b3 bd
       -0.12893142 -0.044617664 -0.003476715 -0.08772829
0000b0 05 f9 9d bb f3 09 44 3b 4a b2 f7 3c c0 e6 8e bc
       -0.004820945 0.0029913157 0.030236382 -0.017444015
0000c0 09 11 8b bb a0 be 2c 3d 1b be 72 bd a4 70 09 bd
       -0.004243974 0.04217398 -0.05926333 -0.033554688
0000d0 7b 08 42 bc 9d 11 1e bd 75 db 2b bd 97 a8 1a bd
       -0.011842842 -0.038591016 -0.041957337 -0.037758436
0000e0 a3 fc e6 bd d7 bc af bc 6a a1 00 bd f5 86 1d bd
       -0.112786554 -0.02145235 -0.031403936 -0.038458783
0000f0 57 7b fe bc e4 55 3c 3c 43 10 bd 3b 2a de 37 3d
       -0.031064672 0.011495087 0.005769761 0.044889607
000100 d2 f8 63 3d 55 cc c5 bd 3c 36 dc bd 8f 9a 10 3d
       0.055657215 -0.09658114 -0.10752532 0.03530365
000110 52 0e 43 bb d4 ca 95 3d 56 fb 1e bd 99 be 2c bd
       -0.0029763174 0.07314077 -0.03881391 -0.042173956
000120 67 5f b0 bd 99 7e 57 3d f9 f7 27 bc 48 61 6b 3c
       -0.086119466 0.052610967 -0.010251992 0.014366455
000130 de 2e a2 3d bd df 9c bd d6 59 81 bd c1 a8 ad 3d
       0.079190955 -0.07659862 -0.06315963 0.08479453
000140 3f fa 4b 3d ad 02 46 bd e9 0e 90 3d 70 bc e5 3d
       0.0497992 -0.048342396 0.07034094 0.11217582
000150 21 8e d3 bd dd 6d 75 3c 00 a0 c4 bd a8 13 b4 bc
       -0.10329843 0.014979807 -0.0960083 -0.02198203
000160 dd 8b e8 bd 5a 85 be bd de 64 2c bc f1 24 8c bd
       -0.11354802 -0.093027785 -0.0105220955 -0.068429835
000170 27 df 43 bd 88 aa df 3c 3c eb 0f 3c 05 b5 33 be
       -0.047820237 0.027302995 0.008784112 -0.17549522
000180 86 8d 1a be 2d 5a 66 bd fe 4e d3 bd c9 71 f1 bc
       -0.1509305 -0.056238342 -0.10317801 -0.029473202
000190 a3 4e 0a bd 92 5b bf bc 6e 00 4c bd b6 a9 6e bb
       -0.0337664 -0.023359094 -0.049805097 -0.0036417074
0001a0 47 d5 f6 3b 4d a8 2a 3d 3a 6f ce 3d 2d 5a a7 3d
       0.007532749 0.04166441 0.100798085 0.081714965
0001b0 12 bb ba 3c 5c db 95 3d ce cf c0 3d 7b 64 30 bc
       0.02279428 0.0731723 0.094146356 -0.010766144
0001c0 21 20 a1 bc 5a 71 30 bd fb a9 55 3d 31 b9 ab bd
       -0.01966864 -0.04307685 0.05216406 -0.08384932
0001d0 00 9a 59 3d e4 38 39 3c 5c 09 84 bd 42 42 00 be
       0.05312538 0.011305068 -0.06447098 -0.12525275
0001e0 bf 08 04 3e 3a da 92 bd 2c 18 28 bd de 30 00 3d
       0.12893961 -0.0717053 -0.041038677 0.031296603
0001f0 d7 63 4d bd 1a 8e 8a 3d d1 0c 57 b9 1f e4 46 bd
       -0.050144043 0.06765385 -0.00020508772 -0.048557397
000200 41 05 ad bc b4 21 09 3d 87 6e e8 bc 23 fd 05 bd
       -0.02112067 0.033479407 -0.028373016 -0.032712113
000210 45 1c 46 3d 7c 1d c2 3b 37 ad b0 3c 0b a6 1e bd
       0.048366804 0.005923925 0.02156697 -0.03873257
000220 0e d1 09 bc 0a c0 bf bc 0a ee 6a 3d 21 97 1f 3d
       -0.008411659 -0.023407001 0.057355918 0.038962487
000230 d9 4d 6c 3d 4e 8b 93 bd e0 ec 5d bd b8 75 6e bb
       0.05769143 -0.07204305 -0.05418098 -0.0036386084
000240 31 8a 87 3d ce 1a 6c bc d5 4f 36 bb 42 5d de bd
       0.06618155 -0.014410688 -0.002781858 -0.10857631
000250 bd 1c 97 bb 08 c8 1a be 24 1a f0 3d 4e 3b d2 3b
       -0.00461158 -0.15115368 0.11723736 0.006415761
000260 0f 23 1c bc 98 2b 55 bd b2 51 28 3d da 07 e3 3c
       -0.009529843 -0.052043527 0.041093536 0.027713705
000270 6e ca 05 3e 85 ae b7 3d 64 43 be 3d 3a e4 f5 bd
       0.13065502 0.08968834 0.092901975 -0.120064214
000280 7b a0 00 3d 88 d4 d2 bc 31 b0 a9 bb d7 6a 5a 3d
       0.031403046 -0.025736108 -0.0051784744 0.053324547
000290 96 c8 9e 3a f8 4e 3a bd df 66 1f 3d 17 e2 26 bc
       0.0012114223 -0.045485467 0.038916465 -0.01018574
0002a0 1c 4e 70 bd aa cc 92 3c ca 53 07 3d 72 e0 e5 bd
       -0.05866824 0.017919857 0.03303889 -0.1122445
0002b0 ab ef 3f 3d 10 f3 e0 3d f2 b0 fe bd 31 be 66 be
       0.046859425 0.109838605 -0.124360934 -0.2253349
0002c0 e1 a3 4b be fd 12 10 be 04 f0 b6 bd 48 bc c1 bd
       -0.19886734 -0.14069743 -0.08932498 -0.0945974
0002d0 7c 5a 42 bd cd 43 c3 3b c6 f0 89 3d 04 d2 a9 bd
       -0.047449574 0.00595901 0.06735377 -0.082920104
0002e0 a8 cd f4 bd 89 6a 4a bd e7 cb 62 bd 86 b5 e0 bd
       -0.11953288 -0.049418006 -0.055370238 -0.10972123
0002f0 b7 f6 9c bd 8e fc 79 bd 47 20 6e bc 26 dc 09 bd
       -0.076642446 -0.06103187 -0.014534063 -0.033657216
000300 90 4b aa 3c 25 1d af 3d 5c f2 68 3d 09 fe 2b bd
       0.020787984 0.08550481 0.056871757 -0.041990314
000310 09 73 3e 3c 9f 31 a3 bd b0 86 ff bc 1d 29 fa 3c
       0.011624106 -0.07968449 -0.031192154 0.030537182
000320 43 f0 aa 3a 13 b3 34 bc 13 ef a0 3b 14 f4 f0 bd
       0.0013041574 -0.011029023 0.0049113124 -0.11765304
000330 7d a6 f1 bd 47 fe 23 bc 15 9f 03 3c 59 b8 cc 3c
       -0.11799333 -0.010009355 0.008033534 0.024990248
000340 87 28 9c 3d 08 07 97 bc 6f d9 18 bd e2 4d 08 be
       0.076249175 -0.01843597 -0.037316736 -0.1331096
000350 7e 76 3b be 83 1c e8 bd d3 ed 83 be 8f 7c 7f 3c
       -0.1830692 -0.11333563 -0.25767383 0.015593662
000360 ec d4 f3 3c fe dd 0e bd 87 ce 52 3d f2 36 c9 bc
       0.029764615 -0.034879677 0.05146649 -0.024562333
000370 38 d1 dc 3d 86 51 18 bd e0 97 58 bd 9d 64 f7 3d
       0.10782093 -0.03718712 -0.052879214 0.12079737
000380 57 a4 48 be ec ce 8a 3d 1b 26 d6 bc bf 2c bd bd
       -0.1959394 0.067777485 -0.026141217 -0.0923705
000390 43 96 e7 bd 2a 49 08 be c7 02 1d be 2f f3 c2 bc
       -0.11307957 -0.1330916 -0.1533309 -0.0237976
0003a0 93 bd 66 3d 83 a2 5a 3c 66 86 c1 bd 7b 32 04 be
       0.056333136 0.01334441 -0.094494626 -0.12909882
0003b0 9a a5 ac 3c cc e0 13 be 1f 74 5d 3d 98 c8 03 3b
       0.021075059 -0.14441222 0.05406582 0.0020108577
0003c0 68 4f 82 be 38 02 83 be 47 de 5e be 7d fb a1 3d
       -0.25451207 -0.2558763 -0.2176448 0.07909296
0003d0 bc 70 7d 3c a0 24 fb bd 33 a8 8c bc d3 10 23 bc
       0.0154687725 -0.12262845 -0.017170047 -0.009952742
0003e0 6c 64 74 bd 3c 8a 85 bd 80 b9 15 bd 3e cf 83 bd
       -0.059666082 -0.06520507 -0.03655386 -0.06436013
0003f0 cd 7a fe 3c b6 36 3d bd fa 34 93 3c 1c 31 0e 3d
       0.031064415 -0.046194755 0.017969597 0.034714803

conv3.bias f4 [64]
000000 9d 91 ab 3d c6 a2 c3 bd 95 4d 0f 3d 0d c2 00 be
       0.08377383 -0.09552531 0.034986097 -0.12574024
000010 dd b2 64 bd 44 a7 0c 3e f5 aa a0 3d 20 6e b1 3a
       -0.05583464 0.13735682 0.078451075 0.0013536848
000020 9f 99 67 bd 33 88 1e bd 76 29 aa bd e3 20 6f bd
       -0.05654299 -0.03870411 -0.08308689 -0.058380973
000030 20 9f fe bc cc e9 b0 3a 74 22 9e 3d 0f 53 a4 bd
       -0.031081736 0.0013497411 0.07721415 -0.08023655
000040 71 e5 47 3d 88 39 6d bd 15 fd 91 bd 59 e7 3f 3c
       0.048802797 -0.057916194 -0.0712835 0.011712872
000050 66 16 be 3c 50 18 34 3c db 1d 10 be 5f 26 83 bd
       0.02320404 0.010992125 -0.14073889 -0.06403803
000060 af 91 9b 3c 30 6b 09 bd 19 2c 11 3d c7 88 7c bd
       0.018990366 -0.033549488 0.035442445 -0.06165388
000070 00 7a 81 3d 2e ec b2 bc af 3d aa 3c 7f 04 0b bd
       0.06322098 -0.021841135 0.020781366 -0.033939835
000080 b6 d5 20 3e bf 2d 4e 3d 36 a8 df 3d 9c 23 ec 3d
       0.15706524 0.050336596 0.109207556 0.115302294
000090 7e d9 40 bc c1 c8 37 3d ef 3c c4 3d 14 a3 f2 bc
       -0.011770604 0.04486919 0.09581935 -0.029618777
0000a0 53 7e 81 bc ab 47 54 bd 04 5a fb bc a8 2b d5 bc
       -0.015807306 -0.05182616 -0.030682571 -0.026021793
0000b0 3e 82 fe bc b7 9e 23 3d 1e 11 85 3d 14 dc 51 3c
       -0.031067964 0.039946284 0.064974055 0.012808818
0000c0 cd 61 e7 bc 87 dc d3 3d d5 08 86 3d 22 8e c9 bb
       -0.028244877 0.10344797 0.06544653 -0.0061509768
0000d0 2a cd ff 3b 65 c8 89 bd c9 fd 90 bc ee 50 17 3d
       0.00780644 -0.06727675 -0.01769914 0.036942415
0000e0 0b 3f 93 bd 9d 3d 5b bd d0 28 9a bd 04 74 bb 3d
       -0.07189759 -0.053525556 -0.075273156 0.091529876
0000f0 54 81 b4 bd 29 41 0e bc 13 6d ef 3c fc 55 93 3b
       -0.0881373 -0.008682528 0.029226815 0.004496334

conv4.weight f4 [128, 64, 3, 3]
000000 8a 5e 67 3d 8c 23 f2 3c c8 a2 08 3c 7b 68 25 3d
       0.056486644 0.029557966 0.008339591 0.040382843
000010 ef 26 39 bc fa 5f 88 bd 27 1f 3c 3e 92 97 0e bd
       -0.011300786 -0.06658931 0.18371259 -0.034812517
000020 fc 1d ea 3d 15 a0 16 be c2 e6 9f bd 0e db f8 bd
       0.114315 -0.14709504 -0.078076854 -0.12151156
000030 85 b1 2c 3d 9d bb 95 bc 9b c3 33 bd d7 96 11 3c
       0.042161483 -0.018277938 -0.043887716 0.008886061
000040 ce 53 96 3d 46 38 ff 3c 34 b0 7d bc 4c 3b f5 bc
       0.07340203 0.031154763 -0.015483905 -0.029935502
000050 97 ea 42 bd f2 b9 33 bc 74 75 8b 3d 87 65 84 3c
       -0.047587004 -0.010969626 0.06809512 0.016161693
000060 7e d3 e8 3b d6 8b 76 3d c3 bf 20 bd 10 79 24 bd
       0.00710529 0.06019195 -0.03924538 -0.040154517
000070 58 19 1b be fa 61 82 bd 42 3e 9f 3d fd d2 86 3d
       -0.15146387 -0.06366344 0.077755466 0.065832116
000080 45 16 44 3d ac e6 b6 3d 87 2d 65 3d 78 28 2c bd
       0.0478728 0.08930716 0.05595162 -0.04203078
000090 5f aa b1 bd d4 98 8f bb 74 a2 b5 bd 98 a6 65 bd
       -0.08675074 -0.004382232 -0.08868876 -0.05606708
0000a0 4e ab db 38 59 c3 e6 bd f2 5a c2 3d 7f 53 fc 3d
       0.00010474642 -0.11267728 0.09490003 0.12320613
0000b0 95 21 ba 3d 03 11 cf bc e4 3c 8d bd b3 1f 21 bd
       0.090884365 -0.025276667 -0.068963796 -0.03933687
0000c0 04 30 fd bd 56 a8 90 bd ad 16 ab bd 79 98 15 3e
       -0.12362674 -0.070633575 -0.083539344 0.14608945
0000d0 03 a7 56 3d 60 91 52 bd c7 96 97 bd d8 3d 3d bd
       0.05240537 -0.05140817 -0.07401805 -0.046201557
0000e0 6f 7c 94 bd 7e 3f 1b be 20 0c 77 bd 4b fd c0 3b
       -0.07250296 -0.15160939 -0.060314298 0.00588957
0000f0 2f d3 e7 3c 66 d8 ec 3c 62 3d 77 3d 46 de 59 3d
       0.028298942 0.02891178 0.060361274 0.053190492
000100 29 06 8d 3d 25 dd 59 bd be e9 c1 bc 4a 21 54 3d
       0.068859406 -0.053189415 -0.023671027 0.05178956
000110 ac cb ec 3a 65 d0 82 3c 19 d2 0d 3d be 5b 35 bd
       0.001806607 0.01596851 0.034624193 -0.044276945
000120 ae e5 e3 3b 31 b0 09 3d 0f 1d 41 bc a8 1a 82 3c
       0.00695487 0.033615295 -0.011786713 0.015881851
000130 2e 54 98 3c 7c e5 47 3d 64 51 82 bc 11 f3 ca 39
       0.018594828 0.048802838 -0.01590795 0.0003870954
000140 f7 0f 07 bb ab c9 93 3d 6f 03 80 3c 40 9a ed bc
       -0.002060888 0.072161995 0.015626637 -0.029004216
000150 31 b6 b4 ba f4 1a ab bc e2 f8 5f ba b5 16 24 3e
       -0.0013787207 -0.020886876 -0.00085438613 0.16024287
000160 fc 35 c6 3c 13 26 bb 3d 5b e7 56 3d 51 2e 87 3d
       0.024195664 0.091381215 0.05246673 0.06600631
000170 15 a6 3d 3d 42 ba 11 3d d0 c2 fe 3d 5c 06 a2 3d
       0.046300966 0.03557802 0.12439501 0.07911369
000180 84 26 c3 bc 0a 51 db 3b 50 f1 3c 3c 8e 9c 10 3d
       -0.023822077 0.00669301 0.011532143 0.035305552
000190 6a 3a d0 bd fb 59 98 3c 19 77 e7 bb a5 12 88 bc
       -0.101673916 0.018597594 -0.007063758 -0.016610453
0001a0 4b 5c 9f 3c 19 f0 cf bc 3a d3 df bd 9b 19 23 bd
       0.019453188 -0.025383042 -0.1092896 -0.03981934
0001b0 bc f3 1b 3d f8 7f 31 3c 53 96 6f bc 6c a6 54 3d
       0.03807424 0.010833733 -0.014623242 0.051916525
0001c0 0c c0 92 bb 38 54 bf bc 7e 06 51 3b 5f 01 81 bb
       -0.00447846 -0.023355588 0.0031894739 -0.003936931
0001d0 bf eb 28 3d 16 32 51 bd c2 63 e1 bc eb 92 4e 3d
       0.04124045 -0.051073156 -0.027513389 0.05043308
0001e0 a0 14 35 3c 24 e6 85 bd 44 a6 52 bd 66 6c b5 3d
       0.011052281 -0.065380365 -0.051428095 0.08858566
0001f0 7f 5e a7 bd 90 c5 93 bc 2d 4a 3d 3b 74 ac 92 3c
       -0.081723206 -0.018038541 0.0028883324 0.017904498
000200 de 24 9f 3a ec 5a c8 3c 60 6e 94 3b d6 62 c4 3c
       0.0012141725 0.024457417 0.0045297593 0.02397291
000210 1e 2b ee ba ef c7 0e be 4a f1 da bd af df a7 bb
       -0.0018170809 -0.13943456 -0.106905535 -0.0051231007
000220 c0 fe 11 bd 87 e5 ca bd 03 21 4b bd 88 3a 1d 3d
       -0.03564334 -0.0990706 -0.04959203 0.038385898
000230 27 57 f6 3b 68 29 9d bc b8 6f b4 3c d3 9a d1 3c
       0.0075177136 -0.019184783 0.022025928 0.025586521
000240 2e b7 78 bb a4 f2 a5 bc 2c ed b0 3d 5b 5d 01 bc
       -0.003795098 -0.020257302 0.08638987 -0.007895793
000250 e5 6c a7 bd 96 27 e0 3c 3a 22 41 3d d1 e9 5f 3d
       -0.08175067 0.027362626 0.04715178 0.054666344
000260 5d 82 ae 3d 55 18 75 bd 95 15 28 be 94 3f 14 3c
       0.085209586 -0.059837658 -0.16414483 0.009048361
000270 57 8f 96 bd 1a d7 e9 3d 27 a6 0b 3d e2 7e de bd
       -0.07351559 0.114179805 0.034094002 -0.10864045
000280 0e 3a af bc c8 9a 22 bd e8 b6 34 3d 57 be ef 3b
       -0.021389987 -0.039698392 0.044119745 0.0073163914
000290 64 f6 56 3d 0a 12 82 3d 90 9f 7b bb ce 53 7e 3d
       0.05248107 0.06351097 -0.0038394667 0.06209164
0002a0 31 96 47 3d ca 80 45 3d 91 b2 42 bd 51 f0 56 bd
       0.048727218 0.048218526 -0.047533575 -0.052475277
0002b0 df ae b4 bc c3 ac 06 bd 23 81 a6 bd a2 47 07 bd
       -0.022056041 -0.032879602 -0.081300996 -0.0330273
0002c0 6c 4f c5 3c a8 f9 3f 3d 2c 50 4f 3d f7 c6 0d bd
       0.024085723 0.04686895 0.050613567 -0.034613576
0002d0 a1 9b 1a bd 29 28 19 3d 83 19 59 bd 4b f0 76 bc
       -0.037746076 0.037391815 -0.053002845 -0.015071939
0002e0 7c 04 49 3d 6a a9 90 3c af 71 d0 3d 26 42 49 3d
       0.049076542 0.017658908 0.101779334 0.04913535
0002f0 94 e8 98 3d 32 b4 9e bc 50 6a 01 bd da f7 c0 bd
       0.07466236 -0.019373033 -0.031595528 -0.09422274
000300 b3 68 20 3e c4 05 e6 3d 80 8b e1 3d 7d 47 99 3c
       0.1566494 0.112315685 0.11012936 0.018710846
000310 be d6 06 3c e0 ea 6c bc a9 95 3a 3d a0 9d c1 bc
       0.008229909 -0.014460295 0.045552883 -0.023634732
000320 36 e3 2d 3d 86 76 d2 bc 47 d7 a6 bd 81 96 c0 3b
       0.042453013 -0.025691282 -0.0814653 0.0058773165
000330 de da a1 3d 73 c8 af 3b 13 57 19 3d f5 07 bb 3c
       0.07903074 0.0053644716 0.037436556 0.022830943
000340 e2 59 9a bd ee b8 95 bb e3 77 e1 bd 97 d1 dd bd
       -0.07536675 -0.0045691645 -0.11009195 -0.10830992
000350 a0 df 12 ba f1 f5 41 3d 62 8b 0f bd d6 5e 0d bd
       -0.0005602781 0.04735369 -0.035045035 -0.03451427
000360 54 cd fb bd cd 75 f5 bd 7a 3f cb bd 1e 11 90 3d
       -0.122950226 -0.11985359 -0.099242166 0.07034515
000370 f5 ff ec 3c a3 bb f7 3c 5c e3 9f 3d f3 be 3c 3e
       0.028930644 0.03024084 0.07807037 0.18432216
000380 1e 76 fc 3d 04 96 4f bb c6 be 28 3c 37 7f 0e bd
       0.123272166 -0.003167511 0.01029939 -0.03478929
000390 b6 5a 1f bd 2f 97 49 bd 0a dd 98 bc f2 c7 33 3d
       -0.038904868 -0.049216446 -0.018660087 0.043891855
0003a0 7f 72 9d 3d 8f ea 7c 3d 20 6a 34 3d ed a0 f5 ba
       0.07687854 0.06174713 0.04404652 -0.0018739976
0003b0 4e 88 06 bd 69 05 fe bd 3d 87 4b be 50 a7 a1 bd
       -0.032844834 -0.12403376 -0.19875808 -0.078932405
0003c0 74 91 6e bd 0d 32 e4 bd df 2b c7 bd fd 1d cd 3d
       -0.058244184 -0.11142359 -0.097251646 0.100154854
0003d0 31 e8 8e 3c cd b0 9e 3d 54 58 dd bc 00 11 82 3c
       0.017444702 0.07748566 -0.027019657 0.015877247
0003e0 9d a8 36 ba 6e 9e 90 3d 39 48 e9 3d f8 bf fa 3d
       -0.00069678744 0.07061468 0.113907285 0.122436464
0003f0 01 ce 96 bd 84 c4 6f bd 17 3e 1c 3d 49 7b 2d bd
       -0.07363511 -0.05853702 0.03814515 -0.042353902

conv4.bias f4 [128]
000000 e1 43 23 3b d1 b9 49 3c b4 3b 33 bd 49 7d 16 bc
       0.0024912285 0.0123123685 -0.04375811 -0.009185144
000010 76 1a db 3b 4f 22 97 bd 19 b7 e3 3d 41 0a 9b 3c
       0.006686504 -0.07379591 0.111189075 0.018925788
000020 61 0a 04 bc 95 e2 96 bd a3 f0 40 bd fb 0d da 3c
       -0.008059115 -0.07367436 -0.04710449 0.026617995
000030 aa 1c 8a 3d 43 17 6b 3c 64 30 8e 3d a1 35 82 3c
       0.067437485 0.014348808 0.069428235 0.015894713
000040 33 8f f1 bc 85 ac 3a 3d 05 bd a2 3b 56 93 2d bc
       -0.029487228 0.045574684 0.0049663805 -0.01059421
000050 19 8d 60 bb 00 92 89 bd c4 34 06 bc bf 78 14 3a
       -0.0034263788 -0.067173004 -0.008191291 0.00056637445
000060 1e f4 e1 3c 60 73 d5 bc a1 d0 6e 3d 74 27 53 b9
       0.027582224 -0.026055992 0.058304433 -0.00020137226
000070 ab a4 b9 bc 02 2f 4f bd 81 b7 4f bd e0 f3 02 3a
       -0.022661528 -0.05058194 -0.050712112 0.00049954467
000080 5f ca 4d bc db ee d4 bb 0d d0 28 bd d2 46 b5 3b
       -0.012560456 -0.0064982004 -0.041214038 0.005532124
000090 23 1b 50 3d 00 bb 09 bc 92 e8 9c bc 97 d8 9b 3d
       0.05080713 -0.008406401 -0.019153867 0.076096706
0000a0 de 5a f9 3d d7 78 53 3c 26 fe 94 bc 73 5b 8a 3c
       0.12175535 0.012907228 -0.018187594 0.01688931
0000b0 7d 27 9c bd b9 1d 89 bc 05 c2 57 3b 42 b5 1f 3d
       -0.07624719 -0.016737806 0.003292204 0.03899122
0000c0 6c a2 4d bd e2 fa b8 bc 15 1c 72 3c 39 8f 2b 3d
       -0.050203726 -0.022580568 0.014777203 0.041884635
0000d0 91 61 52 bd 9f 11 60 bd 23 58 03 bd eb 8b 0d 3c
       -0.051362578 -0.054704305 -0.032066476 0.008639316
0000e0 d0 aa 8c bc 2f 1e c4 3d 02 01 ec bc 9d f6 67 bc
       -0.017171293 0.095760696 -0.028809074 -0.014157918
0000f0 02 84 db 3c 22 23 f3 3c 77 09 d5 bc 5d b6 13 bc
       0.026796345 0.029679839 -0.02600549 -0.009015647
000100 cf e4 5d bd bd fa 97 bc 92 d2 0c 3e d0 58 ba bd
       -0.054173287 -0.018552179 0.13752201 -0.09098971
000110 dd 13 51 bc c5 01 20 3d ef b5 af bd 40 25 35 3d
       -0.012761083 0.039064188 -0.08579623 0.044224977
000120 88 57 20 bd 94 e8 0f bd 30 c3 82 3c 8f 69 9d 3a
       -0.039145976 -0.035133913 0.015962213 0.0012009608
000130 31 ce 25 bd c6 0f 23 bd c9 50 aa bc 98 e8 b9 bd
       -0.040479843 -0.039809965 -0.020790474 -0.09077567
000140 4f be a1 bc 9a be 91 3d 8f b4 ec bc 2b 8d cc 3d
       -0.019744067 0.071164325 -0.02889469 0.09987863
000150 c4 6e 44 bd ab cb 7f bc af 9d 75 3d 52 fc f8 bc
       -0.047957197 -0.015612523 0.059964832 -0.030393753
000160 04 55 13 bd 0c ae 0d bd 91 50 d0 3d 2e 62 ed bc
       -0.03596975 -0.034589812 0.10171617 -0.02897748
000170 76 d9 80 bd 8f 23 1c bd c5 39 1e 3d c4 68 fc 3d
       -0.062914774 -0.03811985 0.038629312 0.1232467
000180 7e 40 b5 3c da 82 07 3d 9d 26 28 bd 41 fe 00 bd
       0.022125479 0.033083774 -0.04105245 -0.031492475
000190 fd 7a 27 bd a7 ee ad bd 8e 2f 53 bd 02 cb 07 3d
       -0.040888775 -0.08492785 -0.051559024 0.033152588
0001a0 fe 06 85 bd c4 4d 2b 3b 55 7f 86 bd 79 8b 04 3c
       -0.06495474 0.0026138881 -0.065672554 0.0080898935
0001b0 20 4c b4 bc c6 da 26 bd cc 4b e1 bc d8 3f 63 3d
       -0.022008955 -0.040735982 -0.027501963 0.055480808
0001c0 57 f0 46 bd da 88 82 bc 37 3d af bc 57 43 be 3d
       -0.04856905 -0.015934397 -0.021391494 0.09290188
0001d0 69 c0 4b bd 1a e8 ac 3d 01 df da bc a3 f6 cf bc
       -0.049744043 0.08442707 -0.026717665 -0.02538616
0001e0 63 74 52 bd b1 90 09 bc 30 ef f7 ba 55 25 97 bc
       -0.051380526 -0.0083963135 -0.0018915888 -0.018450418
0001f0 28 b5 0e 3c 38 cd 33 bc 29 a7 e1 bc 64 07 d0 3c
       0.008710183 -0.010974221 -0.027545528 0.02539415

final_conv.weight f4 [50, 128, 1, 1]
000000 70 68 60 3c 57 59 ef bc ad 7a 9f 3c f7 8b a5 3b
       0.013696775 -0.029217405 0.019467676 0.0050520855
000010 27 87 7d 3d af eb cb bb 27 01 11 bc 2b 60 53 bd
       0.06189647 -0.006223164 -0.008850372 -0.051605385
000020 49 a9 17 3d 69 42 c6 3c 4a 76 ef 3a 79 2e dc bd
       0.037026677 0.024201589 0.0018269506 -0.107510515
000030 c9 78 b8 ba 09 df 6a 3c fb 83 34 be b3 4b bf 3d
       -0.0014074083 0.014335402 -0.17628472 0.0934061
000040 f7 22 d2 bc 11 f3 fd bd 6d 66 6f 3d 31 ab cc bd
       -0.025651438 -0.12399877 0.05844729 -0.0999359
000050 72 6e a9 3c 6e b3 80 bd 06 b2 21 3d 50 b1 6b be
       0.020682547 -0.062842235 0.039476417 -0.23016858
000060 1e 6f cd bd 1f bf c2 bc c1 a0 02 3c 9e 8e 4b bd
       -0.100309595 -0.023772774 0.007972897 -0.049696557
000070 8d 08 2a 3d 98 71 b6 3b df 0b 62 bd 1f 80 e4 3d
       0.04151206 0.0055677406 -0.055187102 0.1115725
000080 f8 a6 c3 bd d4 50 a8 bd 7e 89 02 3d 55 3d 76 bd
       -0.09553331 -0.08218542 0.031869404 -0.060117085
000090 00 fa a1 3d 10 69 d5 3c 42 77 07 bd 4d 93 38 3d
       0.07909012 0.026051074 -0.033072717 0.045062352
0000a0 d7 da 15 3e 66 62 16 be 8f dc a2 3d a3 16 15 3e
       0.14634262 -0.14685974 0.079522245 0.14559416
0000b0 19 f4 b5 bd e0 65 c2 bd f9 36 e5 3d 63 b8 3f be
       -0.088844486 -0.09492087 0.11192126 -0.18722682
0000c0 6c d2 80 bd 9a d1 09 bd b0 6f 52 bd 6c b6 4e bd
       -0.06290135 -0.033647157 -0.051376045 -0.05046694
0000d0 e4 6f ac 3c b0 d6 b9 3d 95 74 40 bd 25 ac a2 3d
       0.021049447 0.090741515 -0.04698618 0.0794299
0000e0 28 8c a5 bd f5 f1 99 bd a7 f2 9c 3d ee ac 43 bd
       -0.08083373 -0.07516853 0.0766347 -0.04777234
0000f0 31 f0 24 be a6 d5 b8 bd 1a e4 62 3d 38 3f 20 3d
       -0.16107251 -0.09025125 0.055393316 0.03912279
000100 e8 16 c4 3c 04 a7 42 3c 2d 53 5b 3d 66 1a 65 3d
       0.023936704 0.01188064 0.05354612 0.05593338
000110 c7 a1 bc bb 73 f8 37 be c9 9e 41 3c 8c 5b aa 3c
       -0.00575659 -0.1796587 0.0118176425 0.020795606
000120 85 cd 30 bd 6e be b8 3c 0c 73 67 3c 53 11 ea bc
       -0.04316475 0.022551741 0.01412655 -0.028572714
000130 c6 1d 02 3d 30 e7 d7 bd 74 b2 1b ba d5 3b 8a bd
       0.031766675 -0.105421424 -0.00059393723 -0.06749693
000140 e9 21 ca 3c 6a e0 1a bd 83 65 a9 3c 29 ac 83 bd
       0.024674373 -0.037811674 0.020678287 -0.06429321
000150 14 b7 bd bb 6d eb af bd 17 94 a0 3d c8 9d 9c 3d
       -0.005789647 -0.08589826 0.07840746 0.07647282
000160 83 c6 95 bd 0d a1 dc bd f0 3b 03 3e 0e 79 4f bd
       -0.07313254 -0.107729055 0.12815833 -0.050652556
000170 25 f2 8b bd b2 d9 3c bd 10 70 79 3c 96 8c 38 3d
       -0.06833295 -0.046106048 0.015224472 0.04505595
000180 5b bc 44 3d 79 d0 f9 3c 13 93 33 bc 8d aa 3b 3d
       0.048031192 0.030494915 -0.010960358 0.045816947
000190 75 cf 47 3d cf f6 b9 bc f3 e4 f6 bd a4 25 bb 3d
       0.04878183 -0.022700695 -0.12055387 0.09138039
0001a0 3e 05 53 3d ab f6 9a bd 40 00 3b 3d e8 88 be 3c
       0.05151867 -0.075665794 0.045654535 0.023258641
0001b0 bb 35 f0 3b fc 03 fc 3c d8 dd 01 3c 7e 02 d2 bd
       0.007330624 0.030763619 0.007926427 -0.102543816
0001c0 a7 5d 37 3d bd 04 fc bc 39 3f d7 bd 76 3c 4b 3c
       0.04476705 -0.030763978 -0.10510106 0.012404552
0001d0 bd 89 cf 3c ec 27 3e 3d 9f 8c 0e be ac 07 29 bd
       0.025334233 0.04642479 -0.1392083 -0.041267082
0001e0 6c 7a 95 3c 42 f5 91 bd 49 2c b4 bd 33 46 d7 3c
       0.018246852 -0.07126857 -0.08797509 0.02627859
0001f0 4a dd 09 bb e2 1d 8a bd 5c a6 99 bd 67 40 31 bd
       -0.002103644 -0.06743981 -0.07502434 -0.04327431
000200 a8 91 c6 bd 8c 1b aa bd 64 b9 18 3d c1 f0 d2 bd
       -0.096957505 -0.083060354 0.037286177 -0.102998264
000210 6d 39 1e 3c c0 20 b3 3c b0 ab 01 be 59 d7 8f bd
       0.009657246 0.021866202 -0.1266315 -0.07023496
000220 ff d8 8b bd 8b 14 3d bd 87 67 ef 3c 3e 2d 09 3d
       -0.06828498 -0.04616217 0.02922417 0.033490412
000230 c9 ac 36 3d 4c e3 b3 3c ba 6a ae 3d f7 18 a7 3b
       0.044598375 0.02195897 0.0851645 0.0050994116
000240 a3 02 a8 3d bf ca 10 3e 57 f9 06 bd 5d ed d0 bd
       0.08203628 0.14139841 -0.032952633 -0.102015235
000250 cb 16 5c 3c 6e 96 47 3c 40 e7 5f 3c 59 40 03 3c
       0.013433169 0.012181861 0.013665974 0.008010947
000260 e9 31 0e be 68 0d b5 bd 63 46 58 bd 04 f6 a9 3d
       -0.13886227 -0.08840448 -0.0528015 0.08298877
000270 be ff c1 bd 4d 10 b2 3c cb 22 05 3d 40 37 6f bd
       -0.09472607 0.021736288 0.032503884 -0.0584023
000280 db 2a 38 be 64 1b cb bc 2b 1d 22 3d 71 72 a6 3d
       -0.17985098 -0.024793334 0.039578598 0.08127297
000290 a3 61 44 3d 0b 49 05 bd 31 c5 b0 bd 2e ad 5b b9
       0.047944676 -0.032540362 -0.08631361 -0.00020949982
0002a0 7f 49 80 3d 59 9f 9a bd 60 f4 b0 bc 72 6e e8 3b
       0.06264018 -0.075499244 -0.021600902 0.007093244
0002b0 0d 93 24 3c be c8 19 3b 89 25 f1 bd e5 f8 aa 3c
       0.010044825 0.00234656 -0.117747374 0.020870635
0002c0 24 5e 60 be 77 97 0a bd 7f 88 95 3d af 78 f4 bc
       -0.21910912 -0.033835854 0.07301425 -0.029842703
0002d0 4d f3 e8 3c 98 ed 83 3c bd 26 8f 3c 65 47 da 3b
       0.028436327 0.016104504 0.017474527 0.006661343
0002e0 21 53 33 3d 51 de 19 bd a9 e3 b3 3b d6 6f d2 bc
       0.04378045 -0.037565533 0.0054897857 -0.025688093
0002f0 9e ab fd bd 59 30 1b 3c 2b b8 2c 3c 35 82 bb 3d
       -0.12386249 0.009471976 0.010541956 0.091556944
000300 2d d1 8c 3c 40 52 07 be b1 9e 87 3c c7 2e ef bc
       0.017189587 -0.1321497 0.016555162 -0.02919711
000310 79 7e 01 be 24 6c 9e 3d 4a 50 07 be 43 8d 28 3d
       -0.12645902 0.0773547 -0.13214222 0.041150343
000320 5c 68 8c 3d 63 7f e7 3c 1c 12 12 bd 1e 03 fd bc
       0.068558425 0.028258985 -0.0356618 -0.030885275
000330 dc fc 12 3b 5e 6c c3 bd c5 c6 3c 3c c8 ea 77 bd
       0.0022428548 -0.09542154 0.011522 -0.06052664
000340 3c 2c 09 bd fe f4 aa bd da 95 7b 3d 86 b4 bb bd
       -0.03348945 -0.0834751 0.061422206 -0.091652915
000350 1f d4 b2 3b ab 3a 1e 3d 69 c1 fc bc 7a e1 aa bd
       0.0054574157 0.03863017 -0.030853944 -0.083437875
000360 a7 ae af bc ce 15 a4 3d a7 19 13 3d 8a 17 71 bb
       -0.021445585 0.080119714 0.035913136 -0.0036787712
000370 32 e2 71 3b 3b 63 f1 bc 1e f0 6c 3d 38 8e 93 bc
       0.0036908505 -0.029466262 0.05784618 -0.018012151
000380 44 f7 ba bc 86 a4 c9 bb 8f 8c eb bc c2 72 80 bc
       -0.022822984 -0.006153646 -0.028753547 -0.01567972
000390 1f a0 43 3d 81 98 5a 3d 11 0f 88 bc 85 1b c1 bd
       0.047760125 0.053368095 -0.016608747 -0.09429077
0003a0 d5 22 5d 3d 94 60 b2 bc 8b bc 89 3d 59 51 64 3d
       0.053988297 -0.021774568 0.06725415 0.05574164
0003b0 61 fb 7b 3d e0 d2 99 3d 32 d8 e0 3c 6a 1e 9b 3d
       0.06151903 0.07510924 0.02744684 0.075741604
0003c0 8d 2e e3 3c bc f1 3b bd 7d d9 ae bc 18 d4 84 3d
       0.027732158 -0.045884833 -0.02134394 0.06485766
0003d0 70 dc 46 bc 2e c1 17 bd ad 1b c0 bc 74 49 20 be
       -0.012137517 -0.037049465 -0.023450697 -0.1565302
0003e0 c6 64 ee bb 55 2a f9 3c ce 28 b3 bd c5 7d 96 bc
       -0.0072751967 0.030415693 -0.08748017 -0.018370518
0003f0 f1 5a 34 3d 89 47 b4 bd 76 ae 10 3d 74 af 8a bc
       0.04403204 -0.08802707 0.03532263 -0.016929366

final_conv.bias f4 [50]
000000 77 b4 3e bc db 95 f5 bc 43 75 01 be 29 95 9b bd
       -0.011639706 -0.029978683 -0.12642388 -0.075968094
000010 8d 39 0c 3d f7 9f 1e be fa 8c 02 be 2b 09 e8 bc
       0.034234572 -0.15490709 -0.12749091 -0.028324684
000020 84 30 96 bd 5f 9d a4 bd 28 aa 31 3b 7b 29 a5 bd
       -0.07333472 -0.08037829 0.0027109478 -0.080645524
000030 24 91 01 be db 12 1c bd fd 30 21 bd be e5 d0 bd
       -0.12653023 -0.03810392 -0.03935336 -0.1020007
000040 7f 7e 7b bd 0e af 1f be 5f b9 23 bd 54 ec 88 bd
       -0.061399933 -0.15594122 -0.039971706 -0.06685701
000050 dc cd 00 bd e4 68 93 bd d7 4b bc bd 6e 31 92 bd
       -0.031446323 -0.07197741 -0.09194153 -0.07138334
000060 37 fc 17 be 81 1f c6 bd 18 39 3c 3c bf 17 94 bc
       -0.14842306 -0.09673978 0.011488222 -0.01807773
000070 b9 c9 fe bd aa 67 92 bd 24 33 a0 3c e1 b3 0a be
       -0.12440819 -0.071486786 0.019555636 -0.13545181
000080 9c 7d 1a be 86 16 d6 bd ed a8 a6 bd 08 c1 eb bd
       -0.15086979 -0.10453515 -0.08137689 -0.11511427
000090 da 35 8e bd c6 9c f4 bc d1 4d ca bd c7 19 2d be
       -0.06943865 -0.029859912 -0.098781236 -0.16904365
0000a0 ad 47 1b be ad 81 16 be 95 c9 ef bd c3 9e 0c be
       -0.15164061 -0.14697905 -0.117083706 -0.13732438
0000b0 b1 a5 41 bd bb a0 ea bd 7e ef 4f 3c 90 b9 07 bd
       -0.047277156 -0.11456438 0.012691377 -0.03313595
0000c0 1d ab 09 be ed b9 e3 b9
       -0.13444181 -0.0004343534
